program(1.0)
[buildInfo = dict<tensor<string, []>, tensor<string, []>>({{"coremlc-component-MIL", "5.33.5"}, {"coremlc-version", "1877.40.3"}, {"coremltools-component-torch", "2.1.0"}, {"coremltools-source-dialect", "TorchScript"}, {"coremltools-version", "8.2"}})]
{
    func main<ios15>(tensor<fp32, [1, 80, 3000]> logmel_data) {
            tensor<string, []> var_68_pad_type_0 = const()[name = tensor<string, []>("op_68_pad_type_0"), val = tensor<string, []>("custom")];
            tensor<int32, [2]> var_68_pad_0 = const()[name = tensor<string, []>("op_68_pad_0"), val = tensor<int32, [2]>([1, 1])];
            tensor<int32, [1]> var_68_strides_0 = const()[name = tensor<string, []>("op_68_strides_0"), val = tensor<int32, [1]>([1])];
            tensor<int32, [1]> var_68_dilations_0 = const()[name = tensor<string, []>("op_68_dilations_0"), val = tensor<int32, [1]>([1])];
            tensor<int32, []> var_68_groups_0 = const()[name = tensor<string, []>("op_68_groups_0"), val = tensor<int32, []>(1)];
            tensor<string, []> logmel_data_to_fp16_dtype_0 = const()[name = tensor<string, []>("logmel_data_to_fp16_dtype_0"), val = tensor<string, []>("fp16")];
            tensor<fp16, [1024, 80, 3]> const_0_to_fp16 = const()[name = tensor<string, []>("const_0_to_fp16"), val = tensor<fp16, [1024, 80, 3]>(BLOBFILE(path = tensor<string, []>("@model_path/weights/weight.bin"), offset = tensor<uint64, []>(64)))];
            tensor<fp16, [1024]> const_1_to_fp16 = const()[name = tensor<string, []>("const_1_to_fp16"), val = tensor<fp16, [1024]>(BLOBFILE(path = tensor<string, []>("@model_path/weights/weight.bin"), offset = tensor<uint64, []>(491648)))];
            tensor<fp16, [1, 80, 3000]> logmel_data_to_fp16 = cast(dtype = logmel_data_to_fp16_dtype_0, x = logmel_data)[name = tensor<string, []>("cast_100")];
            tensor<fp16, [1, 1024, 3000]> var_68_cast_fp16 = conv(bias = const_1_to_fp16, dilations = var_68_dilations_0, groups = var_68_groups_0, pad = var_68_pad_0, pad_type = var_68_pad_type_0, strides = var_68_strides_0, weight = const_0_to_fp16, x = logmel_data_to_fp16)[name = tensor<string, []>("op_68_cast_fp16")];
            tensor<string, []> input_1_mode_0 = const()[name = tensor<string, []>("input_1_mode_0"), val = tensor<string, []>("EXACT")];
            tensor<fp16, [1, 1024, 3000]> input_1_cast_fp16 = gelu(mode = input_1_mode_0, x = var_68_cast_fp16)[name = tensor<string, []>("input_1_cast_fp16")];
            tensor<string, []> var_86_pad_type_0 = const()[name = tensor<string, []>("op_86_pad_type_0"), val = tensor<string, []>("custom")];
            tensor<int32, [2]> var_86_pad_0 = const()[name = tensor<string, []>("op_86_pad_0"), val = tensor<int32, [2]>([1, 1])];
            tensor<int32, [1]> var_86_strides_0 = const()[name = tensor<string, []>("op_86_strides_0"), val = tensor<int32, [1]>([2])];
            tensor<int32, [1]> var_86_dilations_0 = const()[name = tensor<string, []>("op_86_dilations_0"), val = tensor<int32, [1]>([1])];
            tensor<int32, []> var_86_groups_0 = const()[name = tensor<string, []>("op_86_groups_0"), val = tensor<int32, []>(1)];
            tensor<fp16, [1024, 1024, 3]> const_2_to_fp16 = const()[name = tensor<string, []>("const_2_to_fp16"), val = tensor<fp16, [1024, 1024, 3]>(BLOBFILE(path = tensor<string, []>("@model_path/weights/weight.bin"), offset = tensor<uint64, []>(493760)))];
            tensor<fp16, [1024]> const_3_to_fp16 = const()[name = tensor<string, []>("const_3_to_fp16"), val = tensor<fp16, [1024]>(BLOBFILE(path = tensor<string, []>("@model_path/weights/weight.bin"), offset = tensor<uint64, []>(6785280)))];
            tensor<fp16, [1, 1024, 1500]> var_86_cast_fp16 = conv(bias = const_3_to_fp16, dilations = var_86_dilations_0, groups = var_86_groups_0, pad = var_86_pad_0, pad_type = var_86_pad_type_0, strides = var_86_strides_0, weight = const_2_to_fp16, x = input_1_cast_fp16)[name = tensor<string, []>("op_86_cast_fp16")];
            tensor<string, []> x_3_mode_0 = const()[name = tensor<string, []>("x_3_mode_0"), val = tensor<string, []>("EXACT")];
            tensor<fp16, [1, 1024, 1500]> x_3_cast_fp16 = gelu(mode = x_3_mode_0, x = var_86_cast_fp16)[name = tensor<string, []>("x_3_cast_fp16")];
            tensor<fp16, [1024, 1500]> var_91_to_fp16 = const()[name = tensor<string, []>("op_91_to_fp16"), val = tensor<fp16, [1024, 1500]>(BLOBFILE(path = tensor<string, []>("@model_path/weights/weight.bin"), offset = tensor<uint64, []>(6787392)))];
            tensor<fp16, [1, 1024, 1500]> var_93_cast_fp16 = add(x = x_3_cast_fp16, y = var_91_to_fp16)[name = tensor<string, []>("op_93_cast_fp16")];
            tensor<int32, [1]> inputs_1_axes_0 = const()[name = tensor<string, []>("inputs_1_axes_0"), val = tensor<int32, [1]>([2])];
            tensor<fp16, [1, 1024, 1, 1500]> inputs_1_cast_fp16 = expand_dims(axes = inputs_1_axes_0, x = var_93_cast_fp16)[name = tensor<string, []>("inputs_1_cast_fp16")];
            tensor<int32, []> var_108 = const()[name = tensor<string, []>("op_108"), val = tensor<int32, []>(1)];
            tensor<int32, [1]> input_3_axes_0 = const()[name = tensor<string, []>("input_3_axes_0"), val = tensor<int32, [1]>([1])];
            tensor<fp16, [1024]> input_3_gamma_0_to_fp16 = const()[name = tensor<string, []>("input_3_gamma_0_to_fp16"), val = tensor<fp16, [1024]>(BLOBFILE(path = tensor<string, []>("@model_path/weights/weight.bin"), offset = tensor<uint64, []>(9859456)))];
            tensor<fp16, [1024]> input_3_beta_0_to_fp16 = const()[name = tensor<string, []>("input_3_beta_0_to_fp16"), val = tensor<fp16, [1024]>(BLOBFILE(path = tensor<string, []>("@model_path/weights/weight.bin"), offset = tensor<uint64, []>(9861568)))];
            tensor<fp16, []> var_124_to_fp16 = const()[name = tensor<string, []>("op_124_to_fp16"), val = tensor<fp16, []>(0x1.5p-17)];
            tensor<fp16, [1, 1024, 1, 1500]> input_3_cast_fp16 = layer_norm(axes = input_3_axes_0, beta = input_3_beta_0_to_fp16, epsilon = var_124_to_fp16, gamma = input_3_gamma_0_to_fp16, x = inputs_1_cast_fp16)[name = tensor<string, []>("input_3_cast_fp16")];
            tensor<string, []> q_1_pad_type_0 = const()[name = tensor<string, []>("q_1_pad_type_0"), val = tensor<string, []>("valid")];
            tensor<int32, [2]> q_1_strides_0 = const()[name = tensor<string, []>("q_1_strides_0"), val = tensor<int32, [2]>([1, 1])];
            tensor<int32, [4]> q_1_pad_0 = const()[name = tensor<string, []>("q_1_pad_0"), val = tensor<int32, [4]>([0, 0, 0, 0])];
            tensor<int32, [2]> q_1_dilations_0 = const()[name = tensor<string, []>("q_1_dilations_0"), val = tensor<int32, [2]>([1, 1])];
            tensor<int32, []> q_1_groups_0 = const()[name = tensor<string, []>("q_1_groups_0"), val = tensor<int32, []>(1)];
            tensor<fp16, [1024, 1024, 1, 1]> var_159_weight_0_to_fp16 = const()[name = tensor<string, []>("op_159_weight_0_to_fp16"), val = tensor<fp16, [1024, 1024, 1, 1]>(BLOBFILE(path = tensor<string, []>("@model_path/weights/weight.bin"), offset = tensor<uint64, []>(9863680)))];
            tensor<fp16, [1024]> var_159_bias_0_to_fp16 = const()[name = tensor<string, []>("op_159_bias_0_to_fp16"), val = tensor<fp16, [1024]>(BLOBFILE(path = tensor<string, []>("@model_path/weights/weight.bin"), offset = tensor<uint64, []>(11960896)))];
            tensor<fp16, [1, 1024, 1, 1500]> var_159_cast_fp16 = conv(bias = var_159_bias_0_to_fp16, dilations = q_1_dilations_0, groups = q_1_groups_0, pad = q_1_pad_0, pad_type = q_1_pad_type_0, strides = q_1_strides_0, weight = var_159_weight_0_to_fp16, x = input_3_cast_fp16)[name = tensor<string, []>("op_159_cast_fp16")];
            tensor<string, []> k_1_pad_type_0 = const()[name = tensor<string, []>("k_1_pad_type_0"), val = tensor<string, []>("valid")];
            tensor<int32, [2]> k_1_strides_0 = const()[name = tensor<string, []>("k_1_strides_0"), val = tensor<int32, [2]>([1, 1])];
            tensor<int32, [4]> k_1_pad_0 = const()[name = tensor<string, []>("k_1_pad_0"), val = tensor<int32, [4]>([0, 0, 0, 0])];
            tensor<int32, [2]> k_1_dilations_0 = const()[name = tensor<string, []>("k_1_dilations_0"), val = tensor<int32, [2]>([1, 1])];
            tensor<int32, []> k_1_groups_0 = const()[name = tensor<string, []>("k_1_groups_0"), val = tensor<int32, []>(1)];
            tensor<fp16, [1024, 1024, 1, 1]> blocks_0_attn_key_weight_to_fp16 = const()[name = tensor<string, []>("blocks_0_attn_key_weight_to_fp16"), val = tensor<fp16, [1024, 1024, 1, 1]>(BLOBFILE(path = tensor<string, []>("@model_path/weights/weight.bin"), offset = tensor<uint64, []>(11963008)))];
            tensor<fp16, [1, 1024, 1, 1500]> k_1_cast_fp16 = conv(dilations = k_1_dilations_0, groups = k_1_groups_0, pad = k_1_pad_0, pad_type = k_1_pad_type_0, strides = k_1_strides_0, weight = blocks_0_attn_key_weight_to_fp16, x = input_3_cast_fp16)[name = tensor<string, []>("k_1_cast_fp16")];
            tensor<string, []> var_157_pad_type_0 = const()[name = tensor<string, []>("op_157_pad_type_0"), val = tensor<string, []>("valid")];
            tensor<int32, [2]> var_157_strides_0 = const()[name = tensor<string, []>("op_157_strides_0"), val = tensor<int32, [2]>([1, 1])];
            tensor<int32, [4]> var_157_pad_0 = const()[name = tensor<string, []>("op_157_pad_0"), val = tensor<int32, [4]>([0, 0, 0, 0])];
            tensor<int32, [2]> var_157_dilations_0 = const()[name = tensor<string, []>("op_157_dilations_0"), val = tensor<int32, [2]>([1, 1])];
            tensor<int32, []> var_157_groups_0 = const()[name = tensor<string, []>("op_157_groups_0"), val = tensor<int32, []>(1)];
            tensor<fp16, [1024, 1024, 1, 1]> blocks_0_attn_value_weight_to_fp16 = const()[name = tensor<string, []>("blocks_0_attn_value_weight_to_fp16"), val = tensor<fp16, [1024, 1024, 1, 1]>(BLOBFILE(path = tensor<string, []>("@model_path/weights/weight.bin"), offset = tensor<uint64, []>(14060224)))];
            tensor<fp16, [1024]> blocks_0_attn_value_bias_to_fp16 = const()[name = tensor<string, []>("blocks_0_attn_value_bias_to_fp16"), val = tensor<fp16, [1024]>(BLOBFILE(path = tensor<string, []>("@model_path/weights/weight.bin"), offset = tensor<uint64, []>(16157440)))];
            tensor<fp16, [1, 1024, 1, 1500]> var_157_cast_fp16 = conv(bias = blocks_0_attn_value_bias_to_fp16, dilations = var_157_dilations_0, groups = var_157_groups_0, pad = var_157_pad_0, pad_type = var_157_pad_type_0, strides = var_157_strides_0, weight = blocks_0_attn_value_weight_to_fp16, x = input_3_cast_fp16)[name = tensor<string, []>("op_157_cast_fp16")];
            tensor<int32, [16]> tile_0 = const()[name = tensor<string, []>("tile_0"), val = tensor<int32, [16]>([64, 64, 64, 64, 64, 64, 64, 64, 64, 64, 64, 64, 64, 64, 64, 64])];
            tensor<int32, []> var_160_axis_0 = const()[name = tensor<string, []>("op_160_axis_0"), val = tensor<int32, []>(1)];
            tensor<fp16, [1, 64, 1, 1500]> var_160_cast_fp16_0, tensor<fp16, [1, 64, 1, 1500]> var_160_cast_fp16_1, tensor<fp16, [1, 64, 1, 1500]> var_160_cast_fp16_2, tensor<fp16, [1, 64, 1, 1500]> var_160_cast_fp16_3, tensor<fp16, [1, 64, 1, 1500]> var_160_cast_fp16_4, tensor<fp16, [1, 64, 1, 1500]> var_160_cast_fp16_5, tensor<fp16, [1, 64, 1, 1500]> var_160_cast_fp16_6, tensor<fp16, [1, 64, 1, 1500]> var_160_cast_fp16_7, tensor<fp16, [1, 64, 1, 1500]> var_160_cast_fp16_8, tensor<fp16, [1, 64, 1, 1500]> var_160_cast_fp16_9, tensor<fp16, [1, 64, 1, 1500]> var_160_cast_fp16_10, tensor<fp16, [1, 64, 1, 1500]> var_160_cast_fp16_11, tensor<fp16, [1, 64, 1, 1500]> var_160_cast_fp16_12, tensor<fp16, [1, 64, 1, 1500]> var_160_cast_fp16_13, tensor<fp16, [1, 64, 1, 1500]> var_160_cast_fp16_14, tensor<fp16, [1, 64, 1, 1500]> var_160_cast_fp16_15 = split(axis = var_160_axis_0, split_sizes = tile_0, x = var_159_cast_fp16)[name = tensor<string, []>("op_160_cast_fp16")];
            tensor<int32, [4]> var_177_perm_0 = const()[name = tensor<string, []>("op_177_perm_0"), val = tensor<int32, [4]>([0, 3, 2, 1])];
            tensor<int32, [16]> tile_1 = const()[name = tensor<string, []>("tile_1"), val = tensor<int32, [16]>([64, 64, 64, 64, 64, 64, 64, 64, 64, 64, 64, 64, 64, 64, 64, 64])];
            tensor<int32, []> var_178_axis_0 = const()[name = tensor<string, []>("op_178_axis_0"), val = tensor<int32, []>(3)];
            tensor<fp16, [1, 1500, 1, 1024]> var_177_cast_fp16 = transpose(perm = var_177_perm_0, x = k_1_cast_fp16)[name = tensor<string, []>("transpose_24")];
            tensor<fp16, [1, 1500, 1, 64]> var_178_cast_fp16_0, tensor<fp16, [1, 1500, 1, 64]> var_178_cast_fp16_1, tensor<fp16, [1, 1500, 1, 64]> var_178_cast_fp16_2, tensor<fp16, [1, 1500, 1, 64]> var_178_cast_fp16_3, tensor<fp16, [1, 1500, 1, 64]> var_178_cast_fp16_4, tensor<fp16, [1, 1500, 1, 64]> var_178_cast_fp16_5, tensor<fp16, [1, 1500, 1, 64]> var_178_cast_fp16_6, tensor<fp16, [1, 1500, 1, 64]> var_178_cast_fp16_7, tensor<fp16, [1, 1500, 1, 64]> var_178_cast_fp16_8, tensor<fp16, [1, 1500, 1, 64]> var_178_cast_fp16_9, tensor<fp16, [1, 1500, 1, 64]> var_178_cast_fp16_10, tensor<fp16, [1, 1500, 1, 64]> var_178_cast_fp16_11, tensor<fp16, [1, 1500, 1, 64]> var_178_cast_fp16_12, tensor<fp16, [1, 1500, 1, 64]> var_178_cast_fp16_13, tensor<fp16, [1, 1500, 1, 64]> var_178_cast_fp16_14, tensor<fp16, [1, 1500, 1, 64]> var_178_cast_fp16_15 = split(axis = var_178_axis_0, split_sizes = tile_1, x = var_177_cast_fp16)[name = tensor<string, []>("op_178_cast_fp16")];
            tensor<int32, [16]> tile_2 = const()[name = tensor<string, []>("tile_2"), val = tensor<int32, [16]>([64, 64, 64, 64, 64, 64, 64, 64, 64, 64, 64, 64, 64, 64, 64, 64])];
            tensor<int32, []> var_195_axis_0 = const()[name = tensor<string, []>("op_195_axis_0"), val = tensor<int32, []>(1)];
            tensor<fp16, [1, 64, 1, 1500]> var_195_cast_fp16_0, tensor<fp16, [1, 64, 1, 1500]> var_195_cast_fp16_1, tensor<fp16, [1, 64, 1, 1500]> var_195_cast_fp16_2, tensor<fp16, [1, 64, 1, 1500]> var_195_cast_fp16_3, tensor<fp16, [1, 64, 1, 1500]> var_195_cast_fp16_4, tensor<fp16, [1, 64, 1, 1500]> var_195_cast_fp16_5, tensor<fp16, [1, 64, 1, 1500]> var_195_cast_fp16_6, tensor<fp16, [1, 64, 1, 1500]> var_195_cast_fp16_7, tensor<fp16, [1, 64, 1, 1500]> var_195_cast_fp16_8, tensor<fp16, [1, 64, 1, 1500]> var_195_cast_fp16_9, tensor<fp16, [1, 64, 1, 1500]> var_195_cast_fp16_10, tensor<fp16, [1, 64, 1, 1500]> var_195_cast_fp16_11, tensor<fp16, [1, 64, 1, 1500]> var_195_cast_fp16_12, tensor<fp16, [1, 64, 1, 1500]> var_195_cast_fp16_13, tensor<fp16, [1, 64, 1, 1500]> var_195_cast_fp16_14, tensor<fp16, [1, 64, 1, 1500]> var_195_cast_fp16_15 = split(axis = var_195_axis_0, split_sizes = tile_2, x = var_157_cast_fp16)[name = tensor<string, []>("op_195_cast_fp16")];
            tensor<string, []> aw_1_equation_0 = const()[name = tensor<string, []>("aw_1_equation_0"), val = tensor<string, []>("bkhc,bchq->bkhq")];
            tensor<fp16, [1, 1500, 1, 1500]> aw_1_cast_fp16 = einsum(equation = aw_1_equation_0, values = (var_178_cast_fp16_0, var_160_cast_fp16_0))[name = tensor<string, []>("aw_1_cast_fp16")];
            tensor<string, []> aw_3_equation_0 = const()[name = tensor<string, []>("aw_3_equation_0"), val = tensor<string, []>("bkhc,bchq->bkhq")];
            tensor<fp16, [1, 1500, 1, 1500]> aw_3_cast_fp16 = einsum(equation = aw_3_equation_0, values = (var_178_cast_fp16_1, var_160_cast_fp16_1))[name = tensor<string, []>("aw_3_cast_fp16")];
            tensor<string, []> aw_5_equation_0 = const()[name = tensor<string, []>("aw_5_equation_0"), val = tensor<string, []>("bkhc,bchq->bkhq")];
            tensor<fp16, [1, 1500, 1, 1500]> aw_5_cast_fp16 = einsum(equation = aw_5_equation_0, values = (var_178_cast_fp16_2, var_160_cast_fp16_2))[name = tensor<string, []>("aw_5_cast_fp16")];
            tensor<string, []> aw_7_equation_0 = const()[name = tensor<string, []>("aw_7_equation_0"), val = tensor<string, []>("bkhc,bchq->bkhq")];
            tensor<fp16, [1, 1500, 1, 1500]> aw_7_cast_fp16 = einsum(equation = aw_7_equation_0, values = (var_178_cast_fp16_3, var_160_cast_fp16_3))[name = tensor<string, []>("aw_7_cast_fp16")];
            tensor<string, []> aw_9_equation_0 = const()[name = tensor<string, []>("aw_9_equation_0"), val = tensor<string, []>("bkhc,bchq->bkhq")];
            tensor<fp16, [1, 1500, 1, 1500]> aw_9_cast_fp16 = einsum(equation = aw_9_equation_0, values = (var_178_cast_fp16_4, var_160_cast_fp16_4))[name = tensor<string, []>("aw_9_cast_fp16")];
            tensor<string, []> aw_11_equation_0 = const()[name = tensor<string, []>("aw_11_equation_0"), val = tensor<string, []>("bkhc,bchq->bkhq")];
            tensor<fp16, [1, 1500, 1, 1500]> aw_11_cast_fp16 = einsum(equation = aw_11_equation_0, values = (var_178_cast_fp16_5, var_160_cast_fp16_5))[name = tensor<string, []>("aw_11_cast_fp16")];
            tensor<string, []> aw_13_equation_0 = const()[name = tensor<string, []>("aw_13_equation_0"), val = tensor<string, []>("bkhc,bchq->bkhq")];
            tensor<fp16, [1, 1500, 1, 1500]> aw_13_cast_fp16 = einsum(equation = aw_13_equation_0, values = (var_178_cast_fp16_6, var_160_cast_fp16_6))[name = tensor<string, []>("aw_13_cast_fp16")];
            tensor<string, []> aw_15_equation_0 = const()[name = tensor<string, []>("aw_15_equation_0"), val = tensor<string, []>("bkhc,bchq->bkhq")];
            tensor<fp16, [1, 1500, 1, 1500]> aw_15_cast_fp16 = einsum(equation = aw_15_equation_0, values = (var_178_cast_fp16_7, var_160_cast_fp16_7))[name = tensor<string, []>("aw_15_cast_fp16")];
            tensor<string, []> aw_17_equation_0 = const()[name = tensor<string, []>("aw_17_equation_0"), val = tensor<string, []>("bkhc,bchq->bkhq")];
            tensor<fp16, [1, 1500, 1, 1500]> aw_17_cast_fp16 = einsum(equation = aw_17_equation_0, values = (var_178_cast_fp16_8, var_160_cast_fp16_8))[name = tensor<string, []>("aw_17_cast_fp16")];
            tensor<string, []> aw_19_equation_0 = const()[name = tensor<string, []>("aw_19_equation_0"), val = tensor<string, []>("bkhc,bchq->bkhq")];
            tensor<fp16, [1, 1500, 1, 1500]> aw_19_cast_fp16 = einsum(equation = aw_19_equation_0, values = (var_178_cast_fp16_9, var_160_cast_fp16_9))[name = tensor<string, []>("aw_19_cast_fp16")];
            tensor<string, []> aw_21_equation_0 = const()[name = tensor<string, []>("aw_21_equation_0"), val = tensor<string, []>("bkhc,bchq->bkhq")];
            tensor<fp16, [1, 1500, 1, 1500]> aw_21_cast_fp16 = einsum(equation = aw_21_equation_0, values = (var_178_cast_fp16_10, var_160_cast_fp16_10))[name = tensor<string, []>("aw_21_cast_fp16")];
            tensor<string, []> aw_23_equation_0 = const()[name = tensor<string, []>("aw_23_equation_0"), val = tensor<string, []>("bkhc,bchq->bkhq")];
            tensor<fp16, [1, 1500, 1, 1500]> aw_23_cast_fp16 = einsum(equation = aw_23_equation_0, values = (var_178_cast_fp16_11, var_160_cast_fp16_11))[name = tensor<string, []>("aw_23_cast_fp16")];
            tensor<string, []> aw_25_equation_0 = const()[name = tensor<string, []>("aw_25_equation_0"), val = tensor<string, []>("bkhc,bchq->bkhq")];
            tensor<fp16, [1, 1500, 1, 1500]> aw_25_cast_fp16 = einsum(equation = aw_25_equation_0, values = (var_178_cast_fp16_12, var_160_cast_fp16_12))[name = tensor<string, []>("aw_25_cast_fp16")];
            tensor<string, []> aw_27_equation_0 = const()[name = tensor<string, []>("aw_27_equation_0"), val = tensor<string, []>("bkhc,bchq->bkhq")];
            tensor<fp16, [1, 1500, 1, 1500]> aw_27_cast_fp16 = einsum(equation = aw_27_equation_0, values = (var_178_cast_fp16_13, var_160_cast_fp16_13))[name = tensor<string, []>("aw_27_cast_fp16")];
            tensor<string, []> aw_29_equation_0 = const()[name = tensor<string, []>("aw_29_equation_0"), val = tensor<string, []>("bkhc,bchq->bkhq")];
            tensor<fp16, [1, 1500, 1, 1500]> aw_29_cast_fp16 = einsum(equation = aw_29_equation_0, values = (var_178_cast_fp16_14, var_160_cast_fp16_14))[name = tensor<string, []>("aw_29_cast_fp16")];
            tensor<string, []> aw_31_equation_0 = const()[name = tensor<string, []>("aw_31_equation_0"), val = tensor<string, []>("bkhc,bchq->bkhq")];
            tensor<fp16, [1, 1500, 1, 1500]> aw_31_cast_fp16 = einsum(equation = aw_31_equation_0, values = (var_178_cast_fp16_15, var_160_cast_fp16_15))[name = tensor<string, []>("aw_31_cast_fp16")];
            tensor<fp16, [1, 1500, 1, 1500]> var_244_cast_fp16 = softmax(axis = var_108, x = aw_1_cast_fp16)[name = tensor<string, []>("op_244_cast_fp16")];
            tensor<fp16, [1, 1500, 1, 1500]> var_245_cast_fp16 = softmax(axis = var_108, x = aw_3_cast_fp16)[name = tensor<string, []>("op_245_cast_fp16")];
            tensor<fp16, [1, 1500, 1, 1500]> var_246_cast_fp16 = softmax(axis = var_108, x = aw_5_cast_fp16)[name = tensor<string, []>("op_246_cast_fp16")];
            tensor<fp16, [1, 1500, 1, 1500]> var_247_cast_fp16 = softmax(axis = var_108, x = aw_7_cast_fp16)[name = tensor<string, []>("op_247_cast_fp16")];
            tensor<fp16, [1, 1500, 1, 1500]> var_248_cast_fp16 = softmax(axis = var_108, x = aw_9_cast_fp16)[name = tensor<string, []>("op_248_cast_fp16")];
            tensor<fp16, [1, 1500, 1, 1500]> var_249_cast_fp16 = softmax(axis = var_108, x = aw_11_cast_fp16)[name = tensor<string, []>("op_249_cast_fp16")];
            tensor<fp16, [1, 1500, 1, 1500]> var_250_cast_fp16 = softmax(axis = var_108, x = aw_13_cast_fp16)[name = tensor<string, []>("op_250_cast_fp16")];
            tensor<fp16, [1, 1500, 1, 1500]> var_251_cast_fp16 = softmax(axis = var_108, x = aw_15_cast_fp16)[name = tensor<string, []>("op_251_cast_fp16")];
            tensor<fp16, [1, 1500, 1, 1500]> var_252_cast_fp16 = softmax(axis = var_108, x = aw_17_cast_fp16)[name = tensor<string, []>("op_252_cast_fp16")];
            tensor<fp16, [1, 1500, 1, 1500]> var_253_cast_fp16 = softmax(axis = var_108, x = aw_19_cast_fp16)[name = tensor<string, []>("op_253_cast_fp16")];
            tensor<fp16, [1, 1500, 1, 1500]> var_254_cast_fp16 = softmax(axis = var_108, x = aw_21_cast_fp16)[name = tensor<string, []>("op_254_cast_fp16")];
            tensor<fp16, [1, 1500, 1, 1500]> var_255_cast_fp16 = softmax(axis = var_108, x = aw_23_cast_fp16)[name = tensor<string, []>("op_255_cast_fp16")];
            tensor<fp16, [1, 1500, 1, 1500]> var_256_cast_fp16 = softmax(axis = var_108, x = aw_25_cast_fp16)[name = tensor<string, []>("op_256_cast_fp16")];
            tensor<fp16, [1, 1500, 1, 1500]> var_257_cast_fp16 = softmax(axis = var_108, x = aw_27_cast_fp16)[name = tensor<string, []>("op_257_cast_fp16")];
            tensor<fp16, [1, 1500, 1, 1500]> var_258_cast_fp16 = softmax(axis = var_108, x = aw_29_cast_fp16)[name = tensor<string, []>("op_258_cast_fp16")];
            tensor<fp16, [1, 1500, 1, 1500]> var_259_cast_fp16 = softmax(axis = var_108, x = aw_31_cast_fp16)[name = tensor<string, []>("op_259_cast_fp16")];
            tensor<string, []> var_261_equation_0 = const()[name = tensor<string, []>("op_261_equation_0"), val = tensor<string, []>("bchk,bkhq->bchq")];
            tensor<fp16, [1, 64, 1, 1500]> var_261_cast_fp16 = einsum(equation = var_261_equation_0, values = (var_195_cast_fp16_0, var_244_cast_fp16))[name = tensor<string, []>("op_261_cast_fp16")];
            tensor<string, []> var_263_equation_0 = const()[name = tensor<string, []>("op_263_equation_0"), val = tensor<string, []>("bchk,bkhq->bchq")];
            tensor<fp16, [1, 64, 1, 1500]> var_263_cast_fp16 = einsum(equation = var_263_equation_0, values = (var_195_cast_fp16_1, var_245_cast_fp16))[name = tensor<string, []>("op_263_cast_fp16")];
            tensor<string, []> var_265_equation_0 = const()[name = tensor<string, []>("op_265_equation_0"), val = tensor<string, []>("bchk,bkhq->bchq")];
            tensor<fp16, [1, 64, 1, 1500]> var_265_cast_fp16 = einsum(equation = var_265_equation_0, values = (var_195_cast_fp16_2, var_246_cast_fp16))[name = tensor<string, []>("op_265_cast_fp16")];
            tensor<string, []> var_267_equation_0 = const()[name = tensor<string, []>("op_267_equation_0"), val = tensor<string, []>("bchk,bkhq->bchq")];
            tensor<fp16, [1, 64, 1, 1500]> var_267_cast_fp16 = einsum(equation = var_267_equation_0, values = (var_195_cast_fp16_3, var_247_cast_fp16))[name = tensor<string, []>("op_267_cast_fp16")];
            tensor<string, []> var_269_equation_0 = const()[name = tensor<string, []>("op_269_equation_0"), val = tensor<string, []>("bchk,bkhq->bchq")];
            tensor<fp16, [1, 64, 1, 1500]> var_269_cast_fp16 = einsum(equation = var_269_equation_0, values = (var_195_cast_fp16_4, var_248_cast_fp16))[name = tensor<string, []>("op_269_cast_fp16")];
            tensor<string, []> var_271_equation_0 = const()[name = tensor<string, []>("op_271_equation_0"), val = tensor<string, []>("bchk,bkhq->bchq")];
            tensor<fp16, [1, 64, 1, 1500]> var_271_cast_fp16 = einsum(equation = var_271_equation_0, values = (var_195_cast_fp16_5, var_249_cast_fp16))[name = tensor<string, []>("op_271_cast_fp16")];
            tensor<string, []> var_273_equation_0 = const()[name = tensor<string, []>("op_273_equation_0"), val = tensor<string, []>("bchk,bkhq->bchq")];
            tensor<fp16, [1, 64, 1, 1500]> var_273_cast_fp16 = einsum(equation = var_273_equation_0, values = (var_195_cast_fp16_6, var_250_cast_fp16))[name = tensor<string, []>("op_273_cast_fp16")];
            tensor<string, []> var_275_equation_0 = const()[name = tensor<string, []>("op_275_equation_0"), val = tensor<string, []>("bchk,bkhq->bchq")];
            tensor<fp16, [1, 64, 1, 1500]> var_275_cast_fp16 = einsum(equation = var_275_equation_0, values = (var_195_cast_fp16_7, var_251_cast_fp16))[name = tensor<string, []>("op_275_cast_fp16")];
            tensor<string, []> var_277_equation_0 = const()[name = tensor<string, []>("op_277_equation_0"), val = tensor<string, []>("bchk,bkhq->bchq")];
            tensor<fp16, [1, 64, 1, 1500]> var_277_cast_fp16 = einsum(equation = var_277_equation_0, values = (var_195_cast_fp16_8, var_252_cast_fp16))[name = tensor<string, []>("op_277_cast_fp16")];
            tensor<string, []> var_279_equation_0 = const()[name = tensor<string, []>("op_279_equation_0"), val = tensor<string, []>("bchk,bkhq->bchq")];
            tensor<fp16, [1, 64, 1, 1500]> var_279_cast_fp16 = einsum(equation = var_279_equation_0, values = (var_195_cast_fp16_9, var_253_cast_fp16))[name = tensor<string, []>("op_279_cast_fp16")];
            tensor<string, []> var_281_equation_0 = const()[name = tensor<string, []>("op_281_equation_0"), val = tensor<string, []>("bchk,bkhq->bchq")];
            tensor<fp16, [1, 64, 1, 1500]> var_281_cast_fp16 = einsum(equation = var_281_equation_0, values = (var_195_cast_fp16_10, var_254_cast_fp16))[name = tensor<string, []>("op_281_cast_fp16")];
            tensor<string, []> var_283_equation_0 = const()[name = tensor<string, []>("op_283_equation_0"), val = tensor<string, []>("bchk,bkhq->bchq")];
            tensor<fp16, [1, 64, 1, 1500]> var_283_cast_fp16 = einsum(equation = var_283_equation_0, values = (var_195_cast_fp16_11, var_255_cast_fp16))[name = tensor<string, []>("op_283_cast_fp16")];
            tensor<string, []> var_285_equation_0 = const()[name = tensor<string, []>("op_285_equation_0"), val = tensor<string, []>("bchk,bkhq->bchq")];
            tensor<fp16, [1, 64, 1, 1500]> var_285_cast_fp16 = einsum(equation = var_285_equation_0, values = (var_195_cast_fp16_12, var_256_cast_fp16))[name = tensor<string, []>("op_285_cast_fp16")];
            tensor<string, []> var_287_equation_0 = const()[name = tensor<string, []>("op_287_equation_0"), val = tensor<string, []>("bchk,bkhq->bchq")];
            tensor<fp16, [1, 64, 1, 1500]> var_287_cast_fp16 = einsum(equation = var_287_equation_0, values = (var_195_cast_fp16_13, var_257_cast_fp16))[name = tensor<string, []>("op_287_cast_fp16")];
            tensor<string, []> var_289_equation_0 = const()[name = tensor<string, []>("op_289_equation_0"), val = tensor<string, []>("bchk,bkhq->bchq")];
            tensor<fp16, [1, 64, 1, 1500]> var_289_cast_fp16 = einsum(equation = var_289_equation_0, values = (var_195_cast_fp16_14, var_258_cast_fp16))[name = tensor<string, []>("op_289_cast_fp16")];
            tensor<string, []> var_291_equation_0 = const()[name = tensor<string, []>("op_291_equation_0"), val = tensor<string, []>("bchk,bkhq->bchq")];
            tensor<fp16, [1, 64, 1, 1500]> var_291_cast_fp16 = einsum(equation = var_291_equation_0, values = (var_195_cast_fp16_15, var_259_cast_fp16))[name = tensor<string, []>("op_291_cast_fp16")];
            tensor<bool, []> input_5_interleave_0 = const()[name = tensor<string, []>("input_5_interleave_0"), val = tensor<bool, []>(false)];
            tensor<fp16, [1, 1024, 1, 1500]> input_5_cast_fp16 = concat(axis = var_108, interleave = input_5_interleave_0, values = (var_261_cast_fp16, var_263_cast_fp16, var_265_cast_fp16, var_267_cast_fp16, var_269_cast_fp16, var_271_cast_fp16, var_273_cast_fp16, var_275_cast_fp16, var_277_cast_fp16, var_279_cast_fp16, var_281_cast_fp16, var_283_cast_fp16, var_285_cast_fp16, var_287_cast_fp16, var_289_cast_fp16, var_291_cast_fp16))[name = tensor<string, []>("input_5_cast_fp16")];
            tensor<string, []> var_300_pad_type_0 = const()[name = tensor<string, []>("op_300_pad_type_0"), val = tensor<string, []>("valid")];
            tensor<int32, [2]> var_300_strides_0 = const()[name = tensor<string, []>("op_300_strides_0"), val = tensor<int32, [2]>([1, 1])];
            tensor<int32, [4]> var_300_pad_0 = const()[name = tensor<string, []>("op_300_pad_0"), val = tensor<int32, [4]>([0, 0, 0, 0])];
            tensor<int32, [2]> var_300_dilations_0 = const()[name = tensor<string, []>("op_300_dilations_0"), val = tensor<int32, [2]>([1, 1])];
            tensor<int32, []> var_300_groups_0 = const()[name = tensor<string, []>("op_300_groups_0"), val = tensor<int32, []>(1)];
            tensor<fp16, [1024, 1024, 1, 1]> blocks_0_attn_out_weight_to_fp16 = const()[name = tensor<string, []>("blocks_0_attn_out_weight_to_fp16"), val = tensor<fp16, [1024, 1024, 1, 1]>(BLOBFILE(path = tensor<string, []>("@model_path/weights/weight.bin"), offset = tensor<uint64, []>(16159552)))];
            tensor<fp16, [1024]> blocks_0_attn_out_bias_to_fp16 = const()[name = tensor<string, []>("blocks_0_attn_out_bias_to_fp16"), val = tensor<fp16, [1024]>(BLOBFILE(path = tensor<string, []>("@model_path/weights/weight.bin"), offset = tensor<uint64, []>(18256768)))];
            tensor<fp16, [1, 1024, 1, 1500]> var_300_cast_fp16 = conv(bias = blocks_0_attn_out_bias_to_fp16, dilations = var_300_dilations_0, groups = var_300_groups_0, pad = var_300_pad_0, pad_type = var_300_pad_type_0, strides = var_300_strides_0, weight = blocks_0_attn_out_weight_to_fp16, x = input_5_cast_fp16)[name = tensor<string, []>("op_300_cast_fp16")];
            tensor<fp16, [1, 1024, 1, 1500]> inputs_3_cast_fp16 = add(x = inputs_1_cast_fp16, y = var_300_cast_fp16)[name = tensor<string, []>("inputs_3_cast_fp16")];
            tensor<int32, [1]> input_7_axes_0 = const()[name = tensor<string, []>("input_7_axes_0"), val = tensor<int32, [1]>([1])];
            tensor<fp16, [1024]> input_7_gamma_0_to_fp16 = const()[name = tensor<string, []>("input_7_gamma_0_to_fp16"), val = tensor<fp16, [1024]>(BLOBFILE(path = tensor<string, []>("@model_path/weights/weight.bin"), offset = tensor<uint64, []>(18258880)))];
            tensor<fp16, [1024]> input_7_beta_0_to_fp16 = const()[name = tensor<string, []>("input_7_beta_0_to_fp16"), val = tensor<fp16, [1024]>(BLOBFILE(path = tensor<string, []>("@model_path/weights/weight.bin"), offset = tensor<uint64, []>(18260992)))];
            tensor<fp16, []> var_310_to_fp16 = const()[name = tensor<string, []>("op_310_to_fp16"), val = tensor<fp16, []>(0x1.5p-17)];
            tensor<fp16, [1, 1024, 1, 1500]> input_7_cast_fp16 = layer_norm(axes = input_7_axes_0, beta = input_7_beta_0_to_fp16, epsilon = var_310_to_fp16, gamma = input_7_gamma_0_to_fp16, x = inputs_3_cast_fp16)[name = tensor<string, []>("input_7_cast_fp16")];
            tensor<string, []> input_9_pad_type_0 = const()[name = tensor<string, []>("input_9_pad_type_0"), val = tensor<string, []>("valid")];
            tensor<int32, [2]> input_9_strides_0 = const()[name = tensor<string, []>("input_9_strides_0"), val = tensor<int32, [2]>([1, 1])];
            tensor<int32, [4]> input_9_pad_0 = const()[name = tensor<string, []>("input_9_pad_0"), val = tensor<int32, [4]>([0, 0, 0, 0])];
            tensor<int32, [2]> input_9_dilations_0 = const()[name = tensor<string, []>("input_9_dilations_0"), val = tensor<int32, [2]>([1, 1])];
            tensor<int32, []> input_9_groups_0 = const()[name = tensor<string, []>("input_9_groups_0"), val = tensor<int32, []>(1)];
            tensor<fp16, [4096, 1024, 1, 1]> blocks_0_mlp_0_weight_to_fp16 = const()[name = tensor<string, []>("blocks_0_mlp_0_weight_to_fp16"), val = tensor<fp16, [4096, 1024, 1, 1]>(BLOBFILE(path = tensor<string, []>("@model_path/weights/weight.bin"), offset = tensor<uint64, []>(18263104)))];
            tensor<fp16, [4096]> blocks_0_mlp_0_bias_to_fp16 = const()[name = tensor<string, []>("blocks_0_mlp_0_bias_to_fp16"), val = tensor<fp16, [4096]>(BLOBFILE(path = tensor<string, []>("@model_path/weights/weight.bin"), offset = tensor<uint64, []>(26651776)))];
            tensor<fp16, [1, 4096, 1, 1500]> input_9_cast_fp16 = conv(bias = blocks_0_mlp_0_bias_to_fp16, dilations = input_9_dilations_0, groups = input_9_groups_0, pad = input_9_pad_0, pad_type = input_9_pad_type_0, strides = input_9_strides_0, weight = blocks_0_mlp_0_weight_to_fp16, x = input_7_cast_fp16)[name = tensor<string, []>("input_9_cast_fp16")];
            tensor<string, []> input_11_mode_0 = const()[name = tensor<string, []>("input_11_mode_0"), val = tensor<string, []>("EXACT")];
            tensor<fp16, [1, 4096, 1, 1500]> input_11_cast_fp16 = gelu(mode = input_11_mode_0, x = input_9_cast_fp16)[name = tensor<string, []>("input_11_cast_fp16")];
            tensor<string, []> var_336_pad_type_0 = const()[name = tensor<string, []>("op_336_pad_type_0"), val = tensor<string, []>("valid")];
            tensor<int32, [2]> var_336_strides_0 = const()[name = tensor<string, []>("op_336_strides_0"), val = tensor<int32, [2]>([1, 1])];
            tensor<int32, [4]> var_336_pad_0 = const()[name = tensor<string, []>("op_336_pad_0"), val = tensor<int32, [4]>([0, 0, 0, 0])];
            tensor<int32, [2]> var_336_dilations_0 = const()[name = tensor<string, []>("op_336_dilations_0"), val = tensor<int32, [2]>([1, 1])];
            tensor<int32, []> var_336_groups_0 = const()[name = tensor<string, []>("op_336_groups_0"), val = tensor<int32, []>(1)];
            tensor<fp16, [1024, 4096, 1, 1]> blocks_0_mlp_2_weight_to_fp16 = const()[name = tensor<string, []>("blocks_0_mlp_2_weight_to_fp16"), val = tensor<fp16, [1024, 4096, 1, 1]>(BLOBFILE(path = tensor<string, []>("@model_path/weights/weight.bin"), offset = tensor<uint64, []>(26660032)))];
            tensor<fp16, [1024]> blocks_0_mlp_2_bias_to_fp16 = const()[name = tensor<string, []>("blocks_0_mlp_2_bias_to_fp16"), val = tensor<fp16, [1024]>(BLOBFILE(path = tensor<string, []>("@model_path/weights/weight.bin"), offset = tensor<uint64, []>(35048704)))];
            tensor<fp16, [1, 1024, 1, 1500]> var_336_cast_fp16 = conv(bias = blocks_0_mlp_2_bias_to_fp16, dilations = var_336_dilations_0, groups = var_336_groups_0, pad = var_336_pad_0, pad_type = var_336_pad_type_0, strides = var_336_strides_0, weight = blocks_0_mlp_2_weight_to_fp16, x = input_11_cast_fp16)[name = tensor<string, []>("op_336_cast_fp16")];
            tensor<fp16, [1, 1024, 1, 1500]> inputs_5_cast_fp16 = add(x = inputs_3_cast_fp16, y = var_336_cast_fp16)[name = tensor<string, []>("inputs_5_cast_fp16")];
            tensor<int32, []> var_345 = const()[name = tensor<string, []>("op_345"), val = tensor<int32, []>(1)];
            tensor<int32, [1]> input_13_axes_0 = const()[name = tensor<string, []>("input_13_axes_0"), val = tensor<int32, [1]>([1])];
            tensor<fp16, [1024]> input_13_gamma_0_to_fp16 = const()[name = tensor<string, []>("input_13_gamma_0_to_fp16"), val = tensor<fp16, [1024]>(BLOBFILE(path = tensor<string, []>("@model_path/weights/weight.bin"), offset = tensor<uint64, []>(35050816)))];
            tensor<fp16, [1024]> input_13_beta_0_to_fp16 = const()[name = tensor<string, []>("input_13_beta_0_to_fp16"), val = tensor<fp16, [1024]>(BLOBFILE(path = tensor<string, []>("@model_path/weights/weight.bin"), offset = tensor<uint64, []>(35052928)))];
            tensor<fp16, []> var_361_to_fp16 = const()[name = tensor<string, []>("op_361_to_fp16"), val = tensor<fp16, []>(0x1.5p-17)];
            tensor<fp16, [1, 1024, 1, 1500]> input_13_cast_fp16 = layer_norm(axes = input_13_axes_0, beta = input_13_beta_0_to_fp16, epsilon = var_361_to_fp16, gamma = input_13_gamma_0_to_fp16, x = inputs_5_cast_fp16)[name = tensor<string, []>("input_13_cast_fp16")];
            tensor<string, []> q_3_pad_type_0 = const()[name = tensor<string, []>("q_3_pad_type_0"), val = tensor<string, []>("valid")];
            tensor<int32, [2]> q_3_strides_0 = const()[name = tensor<string, []>("q_3_strides_0"), val = tensor<int32, [2]>([1, 1])];
            tensor<int32, [4]> q_3_pad_0 = const()[name = tensor<string, []>("q_3_pad_0"), val = tensor<int32, [4]>([0, 0, 0, 0])];
            tensor<int32, [2]> q_3_dilations_0 = const()[name = tensor<string, []>("q_3_dilations_0"), val = tensor<int32, [2]>([1, 1])];
            tensor<int32, []> q_3_groups_0 = const()[name = tensor<string, []>("q_3_groups_0"), val = tensor<int32, []>(1)];
            tensor<fp16, [1024, 1024, 1, 1]> var_396_weight_0_to_fp16 = const()[name = tensor<string, []>("op_396_weight_0_to_fp16"), val = tensor<fp16, [1024, 1024, 1, 1]>(BLOBFILE(path = tensor<string, []>("@model_path/weights/weight.bin"), offset = tensor<uint64, []>(35055040)))];
            tensor<fp16, [1024]> var_396_bias_0_to_fp16 = const()[name = tensor<string, []>("op_396_bias_0_to_fp16"), val = tensor<fp16, [1024]>(BLOBFILE(path = tensor<string, []>("@model_path/weights/weight.bin"), offset = tensor<uint64, []>(37152256)))];
            tensor<fp16, [1, 1024, 1, 1500]> var_396_cast_fp16 = conv(bias = var_396_bias_0_to_fp16, dilations = q_3_dilations_0, groups = q_3_groups_0, pad = q_3_pad_0, pad_type = q_3_pad_type_0, strides = q_3_strides_0, weight = var_396_weight_0_to_fp16, x = input_13_cast_fp16)[name = tensor<string, []>("op_396_cast_fp16")];
            tensor<string, []> k_3_pad_type_0 = const()[name = tensor<string, []>("k_3_pad_type_0"), val = tensor<string, []>("valid")];
            tensor<int32, [2]> k_3_strides_0 = const()[name = tensor<string, []>("k_3_strides_0"), val = tensor<int32, [2]>([1, 1])];
            tensor<int32, [4]> k_3_pad_0 = const()[name = tensor<string, []>("k_3_pad_0"), val = tensor<int32, [4]>([0, 0, 0, 0])];
            tensor<int32, [2]> k_3_dilations_0 = const()[name = tensor<string, []>("k_3_dilations_0"), val = tensor<int32, [2]>([1, 1])];
            tensor<int32, []> k_3_groups_0 = const()[name = tensor<string, []>("k_3_groups_0"), val = tensor<int32, []>(1)];
            tensor<fp16, [1024, 1024, 1, 1]> blocks_1_attn_key_weight_to_fp16 = const()[name = tensor<string, []>("blocks_1_attn_key_weight_to_fp16"), val = tensor<fp16, [1024, 1024, 1, 1]>(BLOBFILE(path = tensor<string, []>("@model_path/weights/weight.bin"), offset = tensor<uint64, []>(37154368)))];
            tensor<fp16, [1, 1024, 1, 1500]> k_3_cast_fp16 = conv(dilations = k_3_dilations_0, groups = k_3_groups_0, pad = k_3_pad_0, pad_type = k_3_pad_type_0, strides = k_3_strides_0, weight = blocks_1_attn_key_weight_to_fp16, x = input_13_cast_fp16)[name = tensor<string, []>("k_3_cast_fp16")];
            tensor<string, []> var_394_pad_type_0 = const()[name = tensor<string, []>("op_394_pad_type_0"), val = tensor<string, []>("valid")];
            tensor<int32, [2]> var_394_strides_0 = const()[name = tensor<string, []>("op_394_strides_0"), val = tensor<int32, [2]>([1, 1])];
            tensor<int32, [4]> var_394_pad_0 = const()[name = tensor<string, []>("op_394_pad_0"), val = tensor<int32, [4]>([0, 0, 0, 0])];
            tensor<int32, [2]> var_394_dilations_0 = const()[name = tensor<string, []>("op_394_dilations_0"), val = tensor<int32, [2]>([1, 1])];
            tensor<int32, []> var_394_groups_0 = const()[name = tensor<string, []>("op_394_groups_0"), val = tensor<int32, []>(1)];
            tensor<fp16, [1024, 1024, 1, 1]> blocks_1_attn_value_weight_to_fp16 = const()[name = tensor<string, []>("blocks_1_attn_value_weight_to_fp16"), val = tensor<fp16, [1024, 1024, 1, 1]>(BLOBFILE(path = tensor<string, []>("@model_path/weights/weight.bin"), offset = tensor<uint64, []>(39251584)))];
            tensor<fp16, [1024]> blocks_1_attn_value_bias_to_fp16 = const()[name = tensor<string, []>("blocks_1_attn_value_bias_to_fp16"), val = tensor<fp16, [1024]>(BLOBFILE(path = tensor<string, []>("@model_path/weights/weight.bin"), offset = tensor<uint64, []>(41348800)))];
            tensor<fp16, [1, 1024, 1, 1500]> var_394_cast_fp16 = conv(bias = blocks_1_attn_value_bias_to_fp16, dilations = var_394_dilations_0, groups = var_394_groups_0, pad = var_394_pad_0, pad_type = var_394_pad_type_0, strides = var_394_strides_0, weight = blocks_1_attn_value_weight_to_fp16, x = input_13_cast_fp16)[name = tensor<string, []>("op_394_cast_fp16")];
            tensor<int32, [16]> tile_3 = const()[name = tensor<string, []>("tile_3"), val = tensor<int32, [16]>([64, 64, 64, 64, 64, 64, 64, 64, 64, 64, 64, 64, 64, 64, 64, 64])];
            tensor<int32, []> var_397_axis_0 = const()[name = tensor<string, []>("op_397_axis_0"), val = tensor<int32, []>(1)];
            tensor<fp16, [1, 64, 1, 1500]> var_397_cast_fp16_0, tensor<fp16, [1, 64, 1, 1500]> var_397_cast_fp16_1, tensor<fp16, [1, 64, 1, 1500]> var_397_cast_fp16_2, tensor<fp16, [1, 64, 1, 1500]> var_397_cast_fp16_3, tensor<fp16, [1, 64, 1, 1500]> var_397_cast_fp16_4, tensor<fp16, [1, 64, 1, 1500]> var_397_cast_fp16_5, tensor<fp16, [1, 64, 1, 1500]> var_397_cast_fp16_6, tensor<fp16, [1, 64, 1, 1500]> var_397_cast_fp16_7, tensor<fp16, [1, 64, 1, 1500]> var_397_cast_fp16_8, tensor<fp16, [1, 64, 1, 1500]> var_397_cast_fp16_9, tensor<fp16, [1, 64, 1, 1500]> var_397_cast_fp16_10, tensor<fp16, [1, 64, 1, 1500]> var_397_cast_fp16_11, tensor<fp16, [1, 64, 1, 1500]> var_397_cast_fp16_12, tensor<fp16, [1, 64, 1, 1500]> var_397_cast_fp16_13, tensor<fp16, [1, 64, 1, 1500]> var_397_cast_fp16_14, tensor<fp16, [1, 64, 1, 1500]> var_397_cast_fp16_15 = split(axis = var_397_axis_0, split_sizes = tile_3, x = var_396_cast_fp16)[name = tensor<string, []>("op_397_cast_fp16")];
            tensor<int32, [4]> var_414_perm_0 = const()[name = tensor<string, []>("op_414_perm_0"), val = tensor<int32, [4]>([0, 3, 2, 1])];
            tensor<int32, [16]> tile_4 = const()[name = tensor<string, []>("tile_4"), val = tensor<int32, [16]>([64, 64, 64, 64, 64, 64, 64, 64, 64, 64, 64, 64, 64, 64, 64, 64])];
            tensor<int32, []> var_415_axis_0 = const()[name = tensor<string, []>("op_415_axis_0"), val = tensor<int32, []>(3)];
            tensor<fp16, [1, 1500, 1, 1024]> var_414_cast_fp16 = transpose(perm = var_414_perm_0, x = k_3_cast_fp16)[name = tensor<string, []>("transpose_23")];
            tensor<fp16, [1, 1500, 1, 64]> var_415_cast_fp16_0, tensor<fp16, [1, 1500, 1, 64]> var_415_cast_fp16_1, tensor<fp16, [1, 1500, 1, 64]> var_415_cast_fp16_2, tensor<fp16, [1, 1500, 1, 64]> var_415_cast_fp16_3, tensor<fp16, [1, 1500, 1, 64]> var_415_cast_fp16_4, tensor<fp16, [1, 1500, 1, 64]> var_415_cast_fp16_5, tensor<fp16, [1, 1500, 1, 64]> var_415_cast_fp16_6, tensor<fp16, [1, 1500, 1, 64]> var_415_cast_fp16_7, tensor<fp16, [1, 1500, 1, 64]> var_415_cast_fp16_8, tensor<fp16, [1, 1500, 1, 64]> var_415_cast_fp16_9, tensor<fp16, [1, 1500, 1, 64]> var_415_cast_fp16_10, tensor<fp16, [1, 1500, 1, 64]> var_415_cast_fp16_11, tensor<fp16, [1, 1500, 1, 64]> var_415_cast_fp16_12, tensor<fp16, [1, 1500, 1, 64]> var_415_cast_fp16_13, tensor<fp16, [1, 1500, 1, 64]> var_415_cast_fp16_14, tensor<fp16, [1, 1500, 1, 64]> var_415_cast_fp16_15 = split(axis = var_415_axis_0, split_sizes = tile_4, x = var_414_cast_fp16)[name = tensor<string, []>("op_415_cast_fp16")];
            tensor<int32, [16]> tile_5 = const()[name = tensor<string, []>("tile_5"), val = tensor<int32, [16]>([64, 64, 64, 64, 64, 64, 64, 64, 64, 64, 64, 64, 64, 64, 64, 64])];
            tensor<int32, []> var_432_axis_0 = const()[name = tensor<string, []>("op_432_axis_0"), val = tensor<int32, []>(1)];
            tensor<fp16, [1, 64, 1, 1500]> var_432_cast_fp16_0, tensor<fp16, [1, 64, 1, 1500]> var_432_cast_fp16_1, tensor<fp16, [1, 64, 1, 1500]> var_432_cast_fp16_2, tensor<fp16, [1, 64, 1, 1500]> var_432_cast_fp16_3, tensor<fp16, [1, 64, 1, 1500]> var_432_cast_fp16_4, tensor<fp16, [1, 64, 1, 1500]> var_432_cast_fp16_5, tensor<fp16, [1, 64, 1, 1500]> var_432_cast_fp16_6, tensor<fp16, [1, 64, 1, 1500]> var_432_cast_fp16_7, tensor<fp16, [1, 64, 1, 1500]> var_432_cast_fp16_8, tensor<fp16, [1, 64, 1, 1500]> var_432_cast_fp16_9, tensor<fp16, [1, 64, 1, 1500]> var_432_cast_fp16_10, tensor<fp16, [1, 64, 1, 1500]> var_432_cast_fp16_11, tensor<fp16, [1, 64, 1, 1500]> var_432_cast_fp16_12, tensor<fp16, [1, 64, 1, 1500]> var_432_cast_fp16_13, tensor<fp16, [1, 64, 1, 1500]> var_432_cast_fp16_14, tensor<fp16, [1, 64, 1, 1500]> var_432_cast_fp16_15 = split(axis = var_432_axis_0, split_sizes = tile_5, x = var_394_cast_fp16)[name = tensor<string, []>("op_432_cast_fp16")];
            tensor<string, []> aw_33_equation_0 = const()[name = tensor<string, []>("aw_33_equation_0"), val = tensor<string, []>("bkhc,bchq->bkhq")];
            tensor<fp16, [1, 1500, 1, 1500]> aw_33_cast_fp16 = einsum(equation = aw_33_equation_0, values = (var_415_cast_fp16_0, var_397_cast_fp16_0))[name = tensor<string, []>("aw_33_cast_fp16")];
            tensor<string, []> aw_35_equation_0 = const()[name = tensor<string, []>("aw_35_equation_0"), val = tensor<string, []>("bkhc,bchq->bkhq")];
            tensor<fp16, [1, 1500, 1, 1500]> aw_35_cast_fp16 = einsum(equation = aw_35_equation_0, values = (var_415_cast_fp16_1, var_397_cast_fp16_1))[name = tensor<string, []>("aw_35_cast_fp16")];
            tensor<string, []> aw_37_equation_0 = const()[name = tensor<string, []>("aw_37_equation_0"), val = tensor<string, []>("bkhc,bchq->bkhq")];
            tensor<fp16, [1, 1500, 1, 1500]> aw_37_cast_fp16 = einsum(equation = aw_37_equation_0, values = (var_415_cast_fp16_2, var_397_cast_fp16_2))[name = tensor<string, []>("aw_37_cast_fp16")];
            tensor<string, []> aw_39_equation_0 = const()[name = tensor<string, []>("aw_39_equation_0"), val = tensor<string, []>("bkhc,bchq->bkhq")];
            tensor<fp16, [1, 1500, 1, 1500]> aw_39_cast_fp16 = einsum(equation = aw_39_equation_0, values = (var_415_cast_fp16_3, var_397_cast_fp16_3))[name = tensor<string, []>("aw_39_cast_fp16")];
            tensor<string, []> aw_41_equation_0 = const()[name = tensor<string, []>("aw_41_equation_0"), val = tensor<string, []>("bkhc,bchq->bkhq")];
            tensor<fp16, [1, 1500, 1, 1500]> aw_41_cast_fp16 = einsum(equation = aw_41_equation_0, values = (var_415_cast_fp16_4, var_397_cast_fp16_4))[name = tensor<string, []>("aw_41_cast_fp16")];
            tensor<string, []> aw_43_equation_0 = const()[name = tensor<string, []>("aw_43_equation_0"), val = tensor<string, []>("bkhc,bchq->bkhq")];
            tensor<fp16, [1, 1500, 1, 1500]> aw_43_cast_fp16 = einsum(equation = aw_43_equation_0, values = (var_415_cast_fp16_5, var_397_cast_fp16_5))[name = tensor<string, []>("aw_43_cast_fp16")];
            tensor<string, []> aw_45_equation_0 = const()[name = tensor<string, []>("aw_45_equation_0"), val = tensor<string, []>("bkhc,bchq->bkhq")];
            tensor<fp16, [1, 1500, 1, 1500]> aw_45_cast_fp16 = einsum(equation = aw_45_equation_0, values = (var_415_cast_fp16_6, var_397_cast_fp16_6))[name = tensor<string, []>("aw_45_cast_fp16")];
            tensor<string, []> aw_47_equation_0 = const()[name = tensor<string, []>("aw_47_equation_0"), val = tensor<string, []>("bkhc,bchq->bkhq")];
            tensor<fp16, [1, 1500, 1, 1500]> aw_47_cast_fp16 = einsum(equation = aw_47_equation_0, values = (var_415_cast_fp16_7, var_397_cast_fp16_7))[name = tensor<string, []>("aw_47_cast_fp16")];
            tensor<string, []> aw_49_equation_0 = const()[name = tensor<string, []>("aw_49_equation_0"), val = tensor<string, []>("bkhc,bchq->bkhq")];
            tensor<fp16, [1, 1500, 1, 1500]> aw_49_cast_fp16 = einsum(equation = aw_49_equation_0, values = (var_415_cast_fp16_8, var_397_cast_fp16_8))[name = tensor<string, []>("aw_49_cast_fp16")];
            tensor<string, []> aw_51_equation_0 = const()[name = tensor<string, []>("aw_51_equation_0"), val = tensor<string, []>("bkhc,bchq->bkhq")];
            tensor<fp16, [1, 1500, 1, 1500]> aw_51_cast_fp16 = einsum(equation = aw_51_equation_0, values = (var_415_cast_fp16_9, var_397_cast_fp16_9))[name = tensor<string, []>("aw_51_cast_fp16")];
            tensor<string, []> aw_53_equation_0 = const()[name = tensor<string, []>("aw_53_equation_0"), val = tensor<string, []>("bkhc,bchq->bkhq")];
            tensor<fp16, [1, 1500, 1, 1500]> aw_53_cast_fp16 = einsum(equation = aw_53_equation_0, values = (var_415_cast_fp16_10, var_397_cast_fp16_10))[name = tensor<string, []>("aw_53_cast_fp16")];
            tensor<string, []> aw_55_equation_0 = const()[name = tensor<string, []>("aw_55_equation_0"), val = tensor<string, []>("bkhc,bchq->bkhq")];
            tensor<fp16, [1, 1500, 1, 1500]> aw_55_cast_fp16 = einsum(equation = aw_55_equation_0, values = (var_415_cast_fp16_11, var_397_cast_fp16_11))[name = tensor<string, []>("aw_55_cast_fp16")];
            tensor<string, []> aw_57_equation_0 = const()[name = tensor<string, []>("aw_57_equation_0"), val = tensor<string, []>("bkhc,bchq->bkhq")];
            tensor<fp16, [1, 1500, 1, 1500]> aw_57_cast_fp16 = einsum(equation = aw_57_equation_0, values = (var_415_cast_fp16_12, var_397_cast_fp16_12))[name = tensor<string, []>("aw_57_cast_fp16")];
            tensor<string, []> aw_59_equation_0 = const()[name = tensor<string, []>("aw_59_equation_0"), val = tensor<string, []>("bkhc,bchq->bkhq")];
            tensor<fp16, [1, 1500, 1, 1500]> aw_59_cast_fp16 = einsum(equation = aw_59_equation_0, values = (var_415_cast_fp16_13, var_397_cast_fp16_13))[name = tensor<string, []>("aw_59_cast_fp16")];
            tensor<string, []> aw_61_equation_0 = const()[name = tensor<string, []>("aw_61_equation_0"), val = tensor<string, []>("bkhc,bchq->bkhq")];
            tensor<fp16, [1, 1500, 1, 1500]> aw_61_cast_fp16 = einsum(equation = aw_61_equation_0, values = (var_415_cast_fp16_14, var_397_cast_fp16_14))[name = tensor<string, []>("aw_61_cast_fp16")];
            tensor<string, []> aw_63_equation_0 = const()[name = tensor<string, []>("aw_63_equation_0"), val = tensor<string, []>("bkhc,bchq->bkhq")];
            tensor<fp16, [1, 1500, 1, 1500]> aw_63_cast_fp16 = einsum(equation = aw_63_equation_0, values = (var_415_cast_fp16_15, var_397_cast_fp16_15))[name = tensor<string, []>("aw_63_cast_fp16")];
            tensor<fp16, [1, 1500, 1, 1500]> var_481_cast_fp16 = softmax(axis = var_345, x = aw_33_cast_fp16)[name = tensor<string, []>("op_481_cast_fp16")];
            tensor<fp16, [1, 1500, 1, 1500]> var_482_cast_fp16 = softmax(axis = var_345, x = aw_35_cast_fp16)[name = tensor<string, []>("op_482_cast_fp16")];
            tensor<fp16, [1, 1500, 1, 1500]> var_483_cast_fp16 = softmax(axis = var_345, x = aw_37_cast_fp16)[name = tensor<string, []>("op_483_cast_fp16")];
            tensor<fp16, [1, 1500, 1, 1500]> var_484_cast_fp16 = softmax(axis = var_345, x = aw_39_cast_fp16)[name = tensor<string, []>("op_484_cast_fp16")];
            tensor<fp16, [1, 1500, 1, 1500]> var_485_cast_fp16 = softmax(axis = var_345, x = aw_41_cast_fp16)[name = tensor<string, []>("op_485_cast_fp16")];
            tensor<fp16, [1, 1500, 1, 1500]> var_486_cast_fp16 = softmax(axis = var_345, x = aw_43_cast_fp16)[name = tensor<string, []>("op_486_cast_fp16")];
            tensor<fp16, [1, 1500, 1, 1500]> var_487_cast_fp16 = softmax(axis = var_345, x = aw_45_cast_fp16)[name = tensor<string, []>("op_487_cast_fp16")];
            tensor<fp16, [1, 1500, 1, 1500]> var_488_cast_fp16 = softmax(axis = var_345, x = aw_47_cast_fp16)[name = tensor<string, []>("op_488_cast_fp16")];
            tensor<fp16, [1, 1500, 1, 1500]> var_489_cast_fp16 = softmax(axis = var_345, x = aw_49_cast_fp16)[name = tensor<string, []>("op_489_cast_fp16")];
            tensor<fp16, [1, 1500, 1, 1500]> var_490_cast_fp16 = softmax(axis = var_345, x = aw_51_cast_fp16)[name = tensor<string, []>("op_490_cast_fp16")];
            tensor<fp16, [1, 1500, 1, 1500]> var_491_cast_fp16 = softmax(axis = var_345, x = aw_53_cast_fp16)[name = tensor<string, []>("op_491_cast_fp16")];
            tensor<fp16, [1, 1500, 1, 1500]> var_492_cast_fp16 = softmax(axis = var_345, x = aw_55_cast_fp16)[name = tensor<string, []>("op_492_cast_fp16")];
            tensor<fp16, [1, 1500, 1, 1500]> var_493_cast_fp16 = softmax(axis = var_345, x = aw_57_cast_fp16)[name = tensor<string, []>("op_493_cast_fp16")];
            tensor<fp16, [1, 1500, 1, 1500]> var_494_cast_fp16 = softmax(axis = var_345, x = aw_59_cast_fp16)[name = tensor<string, []>("op_494_cast_fp16")];
            tensor<fp16, [1, 1500, 1, 1500]> var_495_cast_fp16 = softmax(axis = var_345, x = aw_61_cast_fp16)[name = tensor<string, []>("op_495_cast_fp16")];
            tensor<fp16, [1, 1500, 1, 1500]> var_496_cast_fp16 = softmax(axis = var_345, x = aw_63_cast_fp16)[name = tensor<string, []>("op_496_cast_fp16")];
            tensor<string, []> var_498_equation_0 = const()[name = tensor<string, []>("op_498_equation_0"), val = tensor<string, []>("bchk,bkhq->bchq")];
            tensor<fp16, [1, 64, 1, 1500]> var_498_cast_fp16 = einsum(equation = var_498_equation_0, values = (var_432_cast_fp16_0, var_481_cast_fp16))[name = tensor<string, []>("op_498_cast_fp16")];
            tensor<string, []> var_500_equation_0 = const()[name = tensor<string, []>("op_500_equation_0"), val = tensor<string, []>("bchk,bkhq->bchq")];
            tensor<fp16, [1, 64, 1, 1500]> var_500_cast_fp16 = einsum(equation = var_500_equation_0, values = (var_432_cast_fp16_1, var_482_cast_fp16))[name = tensor<string, []>("op_500_cast_fp16")];
            tensor<string, []> var_502_equation_0 = const()[name = tensor<string, []>("op_502_equation_0"), val = tensor<string, []>("bchk,bkhq->bchq")];
            tensor<fp16, [1, 64, 1, 1500]> var_502_cast_fp16 = einsum(equation = var_502_equation_0, values = (var_432_cast_fp16_2, var_483_cast_fp16))[name = tensor<string, []>("op_502_cast_fp16")];
            tensor<string, []> var_504_equation_0 = const()[name = tensor<string, []>("op_504_equation_0"), val = tensor<string, []>("bchk,bkhq->bchq")];
            tensor<fp16, [1, 64, 1, 1500]> var_504_cast_fp16 = einsum(equation = var_504_equation_0, values = (var_432_cast_fp16_3, var_484_cast_fp16))[name = tensor<string, []>("op_504_cast_fp16")];
            tensor<string, []> var_506_equation_0 = const()[name = tensor<string, []>("op_506_equation_0"), val = tensor<string, []>("bchk,bkhq->bchq")];
            tensor<fp16, [1, 64, 1, 1500]> var_506_cast_fp16 = einsum(equation = var_506_equation_0, values = (var_432_cast_fp16_4, var_485_cast_fp16))[name = tensor<string, []>("op_506_cast_fp16")];
            tensor<string, []> var_508_equation_0 = const()[name = tensor<string, []>("op_508_equation_0"), val = tensor<string, []>("bchk,bkhq->bchq")];
            tensor<fp16, [1, 64, 1, 1500]> var_508_cast_fp16 = einsum(equation = var_508_equation_0, values = (var_432_cast_fp16_5, var_486_cast_fp16))[name = tensor<string, []>("op_508_cast_fp16")];
            tensor<string, []> var_510_equation_0 = const()[name = tensor<string, []>("op_510_equation_0"), val = tensor<string, []>("bchk,bkhq->bchq")];
            tensor<fp16, [1, 64, 1, 1500]> var_510_cast_fp16 = einsum(equation = var_510_equation_0, values = (var_432_cast_fp16_6, var_487_cast_fp16))[name = tensor<string, []>("op_510_cast_fp16")];
            tensor<string, []> var_512_equation_0 = const()[name = tensor<string, []>("op_512_equation_0"), val = tensor<string, []>("bchk,bkhq->bchq")];
            tensor<fp16, [1, 64, 1, 1500]> var_512_cast_fp16 = einsum(equation = var_512_equation_0, values = (var_432_cast_fp16_7, var_488_cast_fp16))[name = tensor<string, []>("op_512_cast_fp16")];
            tensor<string, []> var_514_equation_0 = const()[name = tensor<string, []>("op_514_equation_0"), val = tensor<string, []>("bchk,bkhq->bchq")];
            tensor<fp16, [1, 64, 1, 1500]> var_514_cast_fp16 = einsum(equation = var_514_equation_0, values = (var_432_cast_fp16_8, var_489_cast_fp16))[name = tensor<string, []>("op_514_cast_fp16")];
            tensor<string, []> var_516_equation_0 = const()[name = tensor<string, []>("op_516_equation_0"), val = tensor<string, []>("bchk,bkhq->bchq")];
            tensor<fp16, [1, 64, 1, 1500]> var_516_cast_fp16 = einsum(equation = var_516_equation_0, values = (var_432_cast_fp16_9, var_490_cast_fp16))[name = tensor<string, []>("op_516_cast_fp16")];
            tensor<string, []> var_518_equation_0 = const()[name = tensor<string, []>("op_518_equation_0"), val = tensor<string, []>("bchk,bkhq->bchq")];
            tensor<fp16, [1, 64, 1, 1500]> var_518_cast_fp16 = einsum(equation = var_518_equation_0, values = (var_432_cast_fp16_10, var_491_cast_fp16))[name = tensor<string, []>("op_518_cast_fp16")];
            tensor<string, []> var_520_equation_0 = const()[name = tensor<string, []>("op_520_equation_0"), val = tensor<string, []>("bchk,bkhq->bchq")];
            tensor<fp16, [1, 64, 1, 1500]> var_520_cast_fp16 = einsum(equation = var_520_equation_0, values = (var_432_cast_fp16_11, var_492_cast_fp16))[name = tensor<string, []>("op_520_cast_fp16")];
            tensor<string, []> var_522_equation_0 = const()[name = tensor<string, []>("op_522_equation_0"), val = tensor<string, []>("bchk,bkhq->bchq")];
            tensor<fp16, [1, 64, 1, 1500]> var_522_cast_fp16 = einsum(equation = var_522_equation_0, values = (var_432_cast_fp16_12, var_493_cast_fp16))[name = tensor<string, []>("op_522_cast_fp16")];
            tensor<string, []> var_524_equation_0 = const()[name = tensor<string, []>("op_524_equation_0"), val = tensor<string, []>("bchk,bkhq->bchq")];
            tensor<fp16, [1, 64, 1, 1500]> var_524_cast_fp16 = einsum(equation = var_524_equation_0, values = (var_432_cast_fp16_13, var_494_cast_fp16))[name = tensor<string, []>("op_524_cast_fp16")];
            tensor<string, []> var_526_equation_0 = const()[name = tensor<string, []>("op_526_equation_0"), val = tensor<string, []>("bchk,bkhq->bchq")];
            tensor<fp16, [1, 64, 1, 1500]> var_526_cast_fp16 = einsum(equation = var_526_equation_0, values = (var_432_cast_fp16_14, var_495_cast_fp16))[name = tensor<string, []>("op_526_cast_fp16")];
            tensor<string, []> var_528_equation_0 = const()[name = tensor<string, []>("op_528_equation_0"), val = tensor<string, []>("bchk,bkhq->bchq")];
            tensor<fp16, [1, 64, 1, 1500]> var_528_cast_fp16 = einsum(equation = var_528_equation_0, values = (var_432_cast_fp16_15, var_496_cast_fp16))[name = tensor<string, []>("op_528_cast_fp16")];
            tensor<bool, []> input_15_interleave_0 = const()[name = tensor<string, []>("input_15_interleave_0"), val = tensor<bool, []>(false)];
            tensor<fp16, [1, 1024, 1, 1500]> input_15_cast_fp16 = concat(axis = var_345, interleave = input_15_interleave_0, values = (var_498_cast_fp16, var_500_cast_fp16, var_502_cast_fp16, var_504_cast_fp16, var_506_cast_fp16, var_508_cast_fp16, var_510_cast_fp16, var_512_cast_fp16, var_514_cast_fp16, var_516_cast_fp16, var_518_cast_fp16, var_520_cast_fp16, var_522_cast_fp16, var_524_cast_fp16, var_526_cast_fp16, var_528_cast_fp16))[name = tensor<string, []>("input_15_cast_fp16")];
            tensor<string, []> var_537_pad_type_0 = const()[name = tensor<string, []>("op_537_pad_type_0"), val = tensor<string, []>("valid")];
            tensor<int32, [2]> var_537_strides_0 = const()[name = tensor<string, []>("op_537_strides_0"), val = tensor<int32, [2]>([1, 1])];
            tensor<int32, [4]> var_537_pad_0 = const()[name = tensor<string, []>("op_537_pad_0"), val = tensor<int32, [4]>([0, 0, 0, 0])];
            tensor<int32, [2]> var_537_dilations_0 = const()[name = tensor<string, []>("op_537_dilations_0"), val = tensor<int32, [2]>([1, 1])];
            tensor<int32, []> var_537_groups_0 = const()[name = tensor<string, []>("op_537_groups_0"), val = tensor<int32, []>(1)];
            tensor<fp16, [1024, 1024, 1, 1]> blocks_1_attn_out_weight_to_fp16 = const()[name = tensor<string, []>("blocks_1_attn_out_weight_to_fp16"), val = tensor<fp16, [1024, 1024, 1, 1]>(BLOBFILE(path = tensor<string, []>("@model_path/weights/weight.bin"), offset = tensor<uint64, []>(41350912)))];
            tensor<fp16, [1024]> blocks_1_attn_out_bias_to_fp16 = const()[name = tensor<string, []>("blocks_1_attn_out_bias_to_fp16"), val = tensor<fp16, [1024]>(BLOBFILE(path = tensor<string, []>("@model_path/weights/weight.bin"), offset = tensor<uint64, []>(43448128)))];
            tensor<fp16, [1, 1024, 1, 1500]> var_537_cast_fp16 = conv(bias = blocks_1_attn_out_bias_to_fp16, dilations = var_537_dilations_0, groups = var_537_groups_0, pad = var_537_pad_0, pad_type = var_537_pad_type_0, strides = var_537_strides_0, weight = blocks_1_attn_out_weight_to_fp16, x = input_15_cast_fp16)[name = tensor<string, []>("op_537_cast_fp16")];
            tensor<fp16, [1, 1024, 1, 1500]> inputs_7_cast_fp16 = add(x = inputs_5_cast_fp16, y = var_537_cast_fp16)[name = tensor<string, []>("inputs_7_cast_fp16")];
            tensor<int32, [1]> input_17_axes_0 = const()[name = tensor<string, []>("input_17_axes_0"), val = tensor<int32, [1]>([1])];
            tensor<fp16, [1024]> input_17_gamma_0_to_fp16 = const()[name = tensor<string, []>("input_17_gamma_0_to_fp16"), val = tensor<fp16, [1024]>(BLOBFILE(path = tensor<string, []>("@model_path/weights/weight.bin"), offset = tensor<uint64, []>(43450240)))];
            tensor<fp16, [1024]> input_17_beta_0_to_fp16 = const()[name = tensor<string, []>("input_17_beta_0_to_fp16"), val = tensor<fp16, [1024]>(BLOBFILE(path = tensor<string, []>("@model_path/weights/weight.bin"), offset = tensor<uint64, []>(43452352)))];
            tensor<fp16, []> var_547_to_fp16 = const()[name = tensor<string, []>("op_547_to_fp16"), val = tensor<fp16, []>(0x1.5p-17)];
            tensor<fp16, [1, 1024, 1, 1500]> input_17_cast_fp16 = layer_norm(axes = input_17_axes_0, beta = input_17_beta_0_to_fp16, epsilon = var_547_to_fp16, gamma = input_17_gamma_0_to_fp16, x = inputs_7_cast_fp16)[name = tensor<string, []>("input_17_cast_fp16")];
            tensor<string, []> input_19_pad_type_0 = const()[name = tensor<string, []>("input_19_pad_type_0"), val = tensor<string, []>("valid")];
            tensor<int32, [2]> input_19_strides_0 = const()[name = tensor<string, []>("input_19_strides_0"), val = tensor<int32, [2]>([1, 1])];
            tensor<int32, [4]> input_19_pad_0 = const()[name = tensor<string, []>("input_19_pad_0"), val = tensor<int32, [4]>([0, 0, 0, 0])];
            tensor<int32, [2]> input_19_dilations_0 = const()[name = tensor<string, []>("input_19_dilations_0"), val = tensor<int32, [2]>([1, 1])];
            tensor<int32, []> input_19_groups_0 = const()[name = tensor<string, []>("input_19_groups_0"), val = tensor<int32, []>(1)];
            tensor<fp16, [4096, 1024, 1, 1]> blocks_1_mlp_0_weight_to_fp16 = const()[name = tensor<string, []>("blocks_1_mlp_0_weight_to_fp16"), val = tensor<fp16, [4096, 1024, 1, 1]>(BLOBFILE(path = tensor<string, []>("@model_path/weights/weight.bin"), offset = tensor<uint64, []>(43454464)))];
            tensor<fp16, [4096]> blocks_1_mlp_0_bias_to_fp16 = const()[name = tensor<string, []>("blocks_1_mlp_0_bias_to_fp16"), val = tensor<fp16, [4096]>(BLOBFILE(path = tensor<string, []>("@model_path/weights/weight.bin"), offset = tensor<uint64, []>(51843136)))];
            tensor<fp16, [1, 4096, 1, 1500]> input_19_cast_fp16 = conv(bias = blocks_1_mlp_0_bias_to_fp16, dilations = input_19_dilations_0, groups = input_19_groups_0, pad = input_19_pad_0, pad_type = input_19_pad_type_0, strides = input_19_strides_0, weight = blocks_1_mlp_0_weight_to_fp16, x = input_17_cast_fp16)[name = tensor<string, []>("input_19_cast_fp16")];
            tensor<string, []> input_21_mode_0 = const()[name = tensor<string, []>("input_21_mode_0"), val = tensor<string, []>("EXACT")];
            tensor<fp16, [1, 4096, 1, 1500]> input_21_cast_fp16 = gelu(mode = input_21_mode_0, x = input_19_cast_fp16)[name = tensor<string, []>("input_21_cast_fp16")];
            tensor<string, []> var_573_pad_type_0 = const()[name = tensor<string, []>("op_573_pad_type_0"), val = tensor<string, []>("valid")];
            tensor<int32, [2]> var_573_strides_0 = const()[name = tensor<string, []>("op_573_strides_0"), val = tensor<int32, [2]>([1, 1])];
            tensor<int32, [4]> var_573_pad_0 = const()[name = tensor<string, []>("op_573_pad_0"), val = tensor<int32, [4]>([0, 0, 0, 0])];
            tensor<int32, [2]> var_573_dilations_0 = const()[name = tensor<string, []>("op_573_dilations_0"), val = tensor<int32, [2]>([1, 1])];
            tensor<int32, []> var_573_groups_0 = const()[name = tensor<string, []>("op_573_groups_0"), val = tensor<int32, []>(1)];
            tensor<fp16, [1024, 4096, 1, 1]> blocks_1_mlp_2_weight_to_fp16 = const()[name = tensor<string, []>("blocks_1_mlp_2_weight_to_fp16"), val = tensor<fp16, [1024, 4096, 1, 1]>(BLOBFILE(path = tensor<string, []>("@model_path/weights/weight.bin"), offset = tensor<uint64, []>(51851392)))];
            tensor<fp16, [1024]> blocks_1_mlp_2_bias_to_fp16 = const()[name = tensor<string, []>("blocks_1_mlp_2_bias_to_fp16"), val = tensor<fp16, [1024]>(BLOBFILE(path = tensor<string, []>("@model_path/weights/weight.bin"), offset = tensor<uint64, []>(60240064)))];
            tensor<fp16, [1, 1024, 1, 1500]> var_573_cast_fp16 = conv(bias = blocks_1_mlp_2_bias_to_fp16, dilations = var_573_dilations_0, groups = var_573_groups_0, pad = var_573_pad_0, pad_type = var_573_pad_type_0, strides = var_573_strides_0, weight = blocks_1_mlp_2_weight_to_fp16, x = input_21_cast_fp16)[name = tensor<string, []>("op_573_cast_fp16")];
            tensor<fp16, [1, 1024, 1, 1500]> inputs_9_cast_fp16 = add(x = inputs_7_cast_fp16, y = var_573_cast_fp16)[name = tensor<string, []>("inputs_9_cast_fp16")];
            tensor<int32, []> var_582 = const()[name = tensor<string, []>("op_582"), val = tensor<int32, []>(1)];
            tensor<int32, [1]> input_23_axes_0 = const()[name = tensor<string, []>("input_23_axes_0"), val = tensor<int32, [1]>([1])];
            tensor<fp16, [1024]> input_23_gamma_0_to_fp16 = const()[name = tensor<string, []>("input_23_gamma_0_to_fp16"), val = tensor<fp16, [1024]>(BLOBFILE(path = tensor<string, []>("@model_path/weights/weight.bin"), offset = tensor<uint64, []>(60242176)))];
            tensor<fp16, [1024]> input_23_beta_0_to_fp16 = const()[name = tensor<string, []>("input_23_beta_0_to_fp16"), val = tensor<fp16, [1024]>(BLOBFILE(path = tensor<string, []>("@model_path/weights/weight.bin"), offset = tensor<uint64, []>(60244288)))];
            tensor<fp16, []> var_598_to_fp16 = const()[name = tensor<string, []>("op_598_to_fp16"), val = tensor<fp16, []>(0x1.5p-17)];
            tensor<fp16, [1, 1024, 1, 1500]> input_23_cast_fp16 = layer_norm(axes = input_23_axes_0, beta = input_23_beta_0_to_fp16, epsilon = var_598_to_fp16, gamma = input_23_gamma_0_to_fp16, x = inputs_9_cast_fp16)[name = tensor<string, []>("input_23_cast_fp16")];
            tensor<string, []> q_5_pad_type_0 = const()[name = tensor<string, []>("q_5_pad_type_0"), val = tensor<string, []>("valid")];
            tensor<int32, [2]> q_5_strides_0 = const()[name = tensor<string, []>("q_5_strides_0"), val = tensor<int32, [2]>([1, 1])];
            tensor<int32, [4]> q_5_pad_0 = const()[name = tensor<string, []>("q_5_pad_0"), val = tensor<int32, [4]>([0, 0, 0, 0])];
            tensor<int32, [2]> q_5_dilations_0 = const()[name = tensor<string, []>("q_5_dilations_0"), val = tensor<int32, [2]>([1, 1])];
            tensor<int32, []> q_5_groups_0 = const()[name = tensor<string, []>("q_5_groups_0"), val = tensor<int32, []>(1)];
            tensor<fp16, [1024, 1024, 1, 1]> var_633_weight_0_to_fp16 = const()[name = tensor<string, []>("op_633_weight_0_to_fp16"), val = tensor<fp16, [1024, 1024, 1, 1]>(BLOBFILE(path = tensor<string, []>("@model_path/weights/weight.bin"), offset = tensor<uint64, []>(60246400)))];
            tensor<fp16, [1024]> var_633_bias_0_to_fp16 = const()[name = tensor<string, []>("op_633_bias_0_to_fp16"), val = tensor<fp16, [1024]>(BLOBFILE(path = tensor<string, []>("@model_path/weights/weight.bin"), offset = tensor<uint64, []>(62343616)))];
            tensor<fp16, [1, 1024, 1, 1500]> var_633_cast_fp16 = conv(bias = var_633_bias_0_to_fp16, dilations = q_5_dilations_0, groups = q_5_groups_0, pad = q_5_pad_0, pad_type = q_5_pad_type_0, strides = q_5_strides_0, weight = var_633_weight_0_to_fp16, x = input_23_cast_fp16)[name = tensor<string, []>("op_633_cast_fp16")];
            tensor<string, []> k_5_pad_type_0 = const()[name = tensor<string, []>("k_5_pad_type_0"), val = tensor<string, []>("valid")];
            tensor<int32, [2]> k_5_strides_0 = const()[name = tensor<string, []>("k_5_strides_0"), val = tensor<int32, [2]>([1, 1])];
            tensor<int32, [4]> k_5_pad_0 = const()[name = tensor<string, []>("k_5_pad_0"), val = tensor<int32, [4]>([0, 0, 0, 0])];
            tensor<int32, [2]> k_5_dilations_0 = const()[name = tensor<string, []>("k_5_dilations_0"), val = tensor<int32, [2]>([1, 1])];
            tensor<int32, []> k_5_groups_0 = const()[name = tensor<string, []>("k_5_groups_0"), val = tensor<int32, []>(1)];
            tensor<fp16, [1024, 1024, 1, 1]> blocks_2_attn_key_weight_to_fp16 = const()[name = tensor<string, []>("blocks_2_attn_key_weight_to_fp16"), val = tensor<fp16, [1024, 1024, 1, 1]>(BLOBFILE(path = tensor<string, []>("@model_path/weights/weight.bin"), offset = tensor<uint64, []>(62345728)))];
            tensor<fp16, [1, 1024, 1, 1500]> k_5_cast_fp16 = conv(dilations = k_5_dilations_0, groups = k_5_groups_0, pad = k_5_pad_0, pad_type = k_5_pad_type_0, strides = k_5_strides_0, weight = blocks_2_attn_key_weight_to_fp16, x = input_23_cast_fp16)[name = tensor<string, []>("k_5_cast_fp16")];
            tensor<string, []> var_631_pad_type_0 = const()[name = tensor<string, []>("op_631_pad_type_0"), val = tensor<string, []>("valid")];
            tensor<int32, [2]> var_631_strides_0 = const()[name = tensor<string, []>("op_631_strides_0"), val = tensor<int32, [2]>([1, 1])];
            tensor<int32, [4]> var_631_pad_0 = const()[name = tensor<string, []>("op_631_pad_0"), val = tensor<int32, [4]>([0, 0, 0, 0])];
            tensor<int32, [2]> var_631_dilations_0 = const()[name = tensor<string, []>("op_631_dilations_0"), val = tensor<int32, [2]>([1, 1])];
            tensor<int32, []> var_631_groups_0 = const()[name = tensor<string, []>("op_631_groups_0"), val = tensor<int32, []>(1)];
            tensor<fp16, [1024, 1024, 1, 1]> blocks_2_attn_value_weight_to_fp16 = const()[name = tensor<string, []>("blocks_2_attn_value_weight_to_fp16"), val = tensor<fp16, [1024, 1024, 1, 1]>(BLOBFILE(path = tensor<string, []>("@model_path/weights/weight.bin"), offset = tensor<uint64, []>(64442944)))];
            tensor<fp16, [1024]> blocks_2_attn_value_bias_to_fp16 = const()[name = tensor<string, []>("blocks_2_attn_value_bias_to_fp16"), val = tensor<fp16, [1024]>(BLOBFILE(path = tensor<string, []>("@model_path/weights/weight.bin"), offset = tensor<uint64, []>(66540160)))];
            tensor<fp16, [1, 1024, 1, 1500]> var_631_cast_fp16 = conv(bias = blocks_2_attn_value_bias_to_fp16, dilations = var_631_dilations_0, groups = var_631_groups_0, pad = var_631_pad_0, pad_type = var_631_pad_type_0, strides = var_631_strides_0, weight = blocks_2_attn_value_weight_to_fp16, x = input_23_cast_fp16)[name = tensor<string, []>("op_631_cast_fp16")];
            tensor<int32, [16]> tile_6 = const()[name = tensor<string, []>("tile_6"), val = tensor<int32, [16]>([64, 64, 64, 64, 64, 64, 64, 64, 64, 64, 64, 64, 64, 64, 64, 64])];
            tensor<int32, []> var_634_axis_0 = const()[name = tensor<string, []>("op_634_axis_0"), val = tensor<int32, []>(1)];
            tensor<fp16, [1, 64, 1, 1500]> var_634_cast_fp16_0, tensor<fp16, [1, 64, 1, 1500]> var_634_cast_fp16_1, tensor<fp16, [1, 64, 1, 1500]> var_634_cast_fp16_2, tensor<fp16, [1, 64, 1, 1500]> var_634_cast_fp16_3, tensor<fp16, [1, 64, 1, 1500]> var_634_cast_fp16_4, tensor<fp16, [1, 64, 1, 1500]> var_634_cast_fp16_5, tensor<fp16, [1, 64, 1, 1500]> var_634_cast_fp16_6, tensor<fp16, [1, 64, 1, 1500]> var_634_cast_fp16_7, tensor<fp16, [1, 64, 1, 1500]> var_634_cast_fp16_8, tensor<fp16, [1, 64, 1, 1500]> var_634_cast_fp16_9, tensor<fp16, [1, 64, 1, 1500]> var_634_cast_fp16_10, tensor<fp16, [1, 64, 1, 1500]> var_634_cast_fp16_11, tensor<fp16, [1, 64, 1, 1500]> var_634_cast_fp16_12, tensor<fp16, [1, 64, 1, 1500]> var_634_cast_fp16_13, tensor<fp16, [1, 64, 1, 1500]> var_634_cast_fp16_14, tensor<fp16, [1, 64, 1, 1500]> var_634_cast_fp16_15 = split(axis = var_634_axis_0, split_sizes = tile_6, x = var_633_cast_fp16)[name = tensor<string, []>("op_634_cast_fp16")];
            tensor<int32, [4]> var_651_perm_0 = const()[name = tensor<string, []>("op_651_perm_0"), val = tensor<int32, [4]>([0, 3, 2, 1])];
            tensor<int32, [16]> tile_7 = const()[name = tensor<string, []>("tile_7"), val = tensor<int32, [16]>([64, 64, 64, 64, 64, 64, 64, 64, 64, 64, 64, 64, 64, 64, 64, 64])];
            tensor<int32, []> var_652_axis_0 = const()[name = tensor<string, []>("op_652_axis_0"), val = tensor<int32, []>(3)];
            tensor<fp16, [1, 1500, 1, 1024]> var_651_cast_fp16 = transpose(perm = var_651_perm_0, x = k_5_cast_fp16)[name = tensor<string, []>("transpose_22")];
            tensor<fp16, [1, 1500, 1, 64]> var_652_cast_fp16_0, tensor<fp16, [1, 1500, 1, 64]> var_652_cast_fp16_1, tensor<fp16, [1, 1500, 1, 64]> var_652_cast_fp16_2, tensor<fp16, [1, 1500, 1, 64]> var_652_cast_fp16_3, tensor<fp16, [1, 1500, 1, 64]> var_652_cast_fp16_4, tensor<fp16, [1, 1500, 1, 64]> var_652_cast_fp16_5, tensor<fp16, [1, 1500, 1, 64]> var_652_cast_fp16_6, tensor<fp16, [1, 1500, 1, 64]> var_652_cast_fp16_7, tensor<fp16, [1, 1500, 1, 64]> var_652_cast_fp16_8, tensor<fp16, [1, 1500, 1, 64]> var_652_cast_fp16_9, tensor<fp16, [1, 1500, 1, 64]> var_652_cast_fp16_10, tensor<fp16, [1, 1500, 1, 64]> var_652_cast_fp16_11, tensor<fp16, [1, 1500, 1, 64]> var_652_cast_fp16_12, tensor<fp16, [1, 1500, 1, 64]> var_652_cast_fp16_13, tensor<fp16, [1, 1500, 1, 64]> var_652_cast_fp16_14, tensor<fp16, [1, 1500, 1, 64]> var_652_cast_fp16_15 = split(axis = var_652_axis_0, split_sizes = tile_7, x = var_651_cast_fp16)[name = tensor<string, []>("op_652_cast_fp16")];
            tensor<int32, [16]> tile_8 = const()[name = tensor<string, []>("tile_8"), val = tensor<int32, [16]>([64, 64, 64, 64, 64, 64, 64, 64, 64, 64, 64, 64, 64, 64, 64, 64])];
            tensor<int32, []> var_669_axis_0 = const()[name = tensor<string, []>("op_669_axis_0"), val = tensor<int32, []>(1)];
            tensor<fp16, [1, 64, 1, 1500]> var_669_cast_fp16_0, tensor<fp16, [1, 64, 1, 1500]> var_669_cast_fp16_1, tensor<fp16, [1, 64, 1, 1500]> var_669_cast_fp16_2, tensor<fp16, [1, 64, 1, 1500]> var_669_cast_fp16_3, tensor<fp16, [1, 64, 1, 1500]> var_669_cast_fp16_4, tensor<fp16, [1, 64, 1, 1500]> var_669_cast_fp16_5, tensor<fp16, [1, 64, 1, 1500]> var_669_cast_fp16_6, tensor<fp16, [1, 64, 1, 1500]> var_669_cast_fp16_7, tensor<fp16, [1, 64, 1, 1500]> var_669_cast_fp16_8, tensor<fp16, [1, 64, 1, 1500]> var_669_cast_fp16_9, tensor<fp16, [1, 64, 1, 1500]> var_669_cast_fp16_10, tensor<fp16, [1, 64, 1, 1500]> var_669_cast_fp16_11, tensor<fp16, [1, 64, 1, 1500]> var_669_cast_fp16_12, tensor<fp16, [1, 64, 1, 1500]> var_669_cast_fp16_13, tensor<fp16, [1, 64, 1, 1500]> var_669_cast_fp16_14, tensor<fp16, [1, 64, 1, 1500]> var_669_cast_fp16_15 = split(axis = var_669_axis_0, split_sizes = tile_8, x = var_631_cast_fp16)[name = tensor<string, []>("op_669_cast_fp16")];
            tensor<string, []> aw_65_equation_0 = const()[name = tensor<string, []>("aw_65_equation_0"), val = tensor<string, []>("bkhc,bchq->bkhq")];
            tensor<fp16, [1, 1500, 1, 1500]> aw_65_cast_fp16 = einsum(equation = aw_65_equation_0, values = (var_652_cast_fp16_0, var_634_cast_fp16_0))[name = tensor<string, []>("aw_65_cast_fp16")];
            tensor<string, []> aw_67_equation_0 = const()[name = tensor<string, []>("aw_67_equation_0"), val = tensor<string, []>("bkhc,bchq->bkhq")];
            tensor<fp16, [1, 1500, 1, 1500]> aw_67_cast_fp16 = einsum(equation = aw_67_equation_0, values = (var_652_cast_fp16_1, var_634_cast_fp16_1))[name = tensor<string, []>("aw_67_cast_fp16")];
            tensor<string, []> aw_69_equation_0 = const()[name = tensor<string, []>("aw_69_equation_0"), val = tensor<string, []>("bkhc,bchq->bkhq")];
            tensor<fp16, [1, 1500, 1, 1500]> aw_69_cast_fp16 = einsum(equation = aw_69_equation_0, values = (var_652_cast_fp16_2, var_634_cast_fp16_2))[name = tensor<string, []>("aw_69_cast_fp16")];
            tensor<string, []> aw_71_equation_0 = const()[name = tensor<string, []>("aw_71_equation_0"), val = tensor<string, []>("bkhc,bchq->bkhq")];
            tensor<fp16, [1, 1500, 1, 1500]> aw_71_cast_fp16 = einsum(equation = aw_71_equation_0, values = (var_652_cast_fp16_3, var_634_cast_fp16_3))[name = tensor<string, []>("aw_71_cast_fp16")];
            tensor<string, []> aw_73_equation_0 = const()[name = tensor<string, []>("aw_73_equation_0"), val = tensor<string, []>("bkhc,bchq->bkhq")];
            tensor<fp16, [1, 1500, 1, 1500]> aw_73_cast_fp16 = einsum(equation = aw_73_equation_0, values = (var_652_cast_fp16_4, var_634_cast_fp16_4))[name = tensor<string, []>("aw_73_cast_fp16")];
            tensor<string, []> aw_75_equation_0 = const()[name = tensor<string, []>("aw_75_equation_0"), val = tensor<string, []>("bkhc,bchq->bkhq")];
            tensor<fp16, [1, 1500, 1, 1500]> aw_75_cast_fp16 = einsum(equation = aw_75_equation_0, values = (var_652_cast_fp16_5, var_634_cast_fp16_5))[name = tensor<string, []>("aw_75_cast_fp16")];
            tensor<string, []> aw_77_equation_0 = const()[name = tensor<string, []>("aw_77_equation_0"), val = tensor<string, []>("bkhc,bchq->bkhq")];
            tensor<fp16, [1, 1500, 1, 1500]> aw_77_cast_fp16 = einsum(equation = aw_77_equation_0, values = (var_652_cast_fp16_6, var_634_cast_fp16_6))[name = tensor<string, []>("aw_77_cast_fp16")];
            tensor<string, []> aw_79_equation_0 = const()[name = tensor<string, []>("aw_79_equation_0"), val = tensor<string, []>("bkhc,bchq->bkhq")];
            tensor<fp16, [1, 1500, 1, 1500]> aw_79_cast_fp16 = einsum(equation = aw_79_equation_0, values = (var_652_cast_fp16_7, var_634_cast_fp16_7))[name = tensor<string, []>("aw_79_cast_fp16")];
            tensor<string, []> aw_81_equation_0 = const()[name = tensor<string, []>("aw_81_equation_0"), val = tensor<string, []>("bkhc,bchq->bkhq")];
            tensor<fp16, [1, 1500, 1, 1500]> aw_81_cast_fp16 = einsum(equation = aw_81_equation_0, values = (var_652_cast_fp16_8, var_634_cast_fp16_8))[name = tensor<string, []>("aw_81_cast_fp16")];
            tensor<string, []> aw_83_equation_0 = const()[name = tensor<string, []>("aw_83_equation_0"), val = tensor<string, []>("bkhc,bchq->bkhq")];
            tensor<fp16, [1, 1500, 1, 1500]> aw_83_cast_fp16 = einsum(equation = aw_83_equation_0, values = (var_652_cast_fp16_9, var_634_cast_fp16_9))[name = tensor<string, []>("aw_83_cast_fp16")];
            tensor<string, []> aw_85_equation_0 = const()[name = tensor<string, []>("aw_85_equation_0"), val = tensor<string, []>("bkhc,bchq->bkhq")];
            tensor<fp16, [1, 1500, 1, 1500]> aw_85_cast_fp16 = einsum(equation = aw_85_equation_0, values = (var_652_cast_fp16_10, var_634_cast_fp16_10))[name = tensor<string, []>("aw_85_cast_fp16")];
            tensor<string, []> aw_87_equation_0 = const()[name = tensor<string, []>("aw_87_equation_0"), val = tensor<string, []>("bkhc,bchq->bkhq")];
            tensor<fp16, [1, 1500, 1, 1500]> aw_87_cast_fp16 = einsum(equation = aw_87_equation_0, values = (var_652_cast_fp16_11, var_634_cast_fp16_11))[name = tensor<string, []>("aw_87_cast_fp16")];
            tensor<string, []> aw_89_equation_0 = const()[name = tensor<string, []>("aw_89_equation_0"), val = tensor<string, []>("bkhc,bchq->bkhq")];
            tensor<fp16, [1, 1500, 1, 1500]> aw_89_cast_fp16 = einsum(equation = aw_89_equation_0, values = (var_652_cast_fp16_12, var_634_cast_fp16_12))[name = tensor<string, []>("aw_89_cast_fp16")];
            tensor<string, []> aw_91_equation_0 = const()[name = tensor<string, []>("aw_91_equation_0"), val = tensor<string, []>("bkhc,bchq->bkhq")];
            tensor<fp16, [1, 1500, 1, 1500]> aw_91_cast_fp16 = einsum(equation = aw_91_equation_0, values = (var_652_cast_fp16_13, var_634_cast_fp16_13))[name = tensor<string, []>("aw_91_cast_fp16")];
            tensor<string, []> aw_93_equation_0 = const()[name = tensor<string, []>("aw_93_equation_0"), val = tensor<string, []>("bkhc,bchq->bkhq")];
            tensor<fp16, [1, 1500, 1, 1500]> aw_93_cast_fp16 = einsum(equation = aw_93_equation_0, values = (var_652_cast_fp16_14, var_634_cast_fp16_14))[name = tensor<string, []>("aw_93_cast_fp16")];
            tensor<string, []> aw_95_equation_0 = const()[name = tensor<string, []>("aw_95_equation_0"), val = tensor<string, []>("bkhc,bchq->bkhq")];
            tensor<fp16, [1, 1500, 1, 1500]> aw_95_cast_fp16 = einsum(equation = aw_95_equation_0, values = (var_652_cast_fp16_15, var_634_cast_fp16_15))[name = tensor<string, []>("aw_95_cast_fp16")];
            tensor<fp16, [1, 1500, 1, 1500]> var_718_cast_fp16 = softmax(axis = var_582, x = aw_65_cast_fp16)[name = tensor<string, []>("op_718_cast_fp16")];
            tensor<fp16, [1, 1500, 1, 1500]> var_719_cast_fp16 = softmax(axis = var_582, x = aw_67_cast_fp16)[name = tensor<string, []>("op_719_cast_fp16")];
            tensor<fp16, [1, 1500, 1, 1500]> var_720_cast_fp16 = softmax(axis = var_582, x = aw_69_cast_fp16)[name = tensor<string, []>("op_720_cast_fp16")];
            tensor<fp16, [1, 1500, 1, 1500]> var_721_cast_fp16 = softmax(axis = var_582, x = aw_71_cast_fp16)[name = tensor<string, []>("op_721_cast_fp16")];
            tensor<fp16, [1, 1500, 1, 1500]> var_722_cast_fp16 = softmax(axis = var_582, x = aw_73_cast_fp16)[name = tensor<string, []>("op_722_cast_fp16")];
            tensor<fp16, [1, 1500, 1, 1500]> var_723_cast_fp16 = softmax(axis = var_582, x = aw_75_cast_fp16)[name = tensor<string, []>("op_723_cast_fp16")];
            tensor<fp16, [1, 1500, 1, 1500]> var_724_cast_fp16 = softmax(axis = var_582, x = aw_77_cast_fp16)[name = tensor<string, []>("op_724_cast_fp16")];
            tensor<fp16, [1, 1500, 1, 1500]> var_725_cast_fp16 = softmax(axis = var_582, x = aw_79_cast_fp16)[name = tensor<string, []>("op_725_cast_fp16")];
            tensor<fp16, [1, 1500, 1, 1500]> var_726_cast_fp16 = softmax(axis = var_582, x = aw_81_cast_fp16)[name = tensor<string, []>("op_726_cast_fp16")];
            tensor<fp16, [1, 1500, 1, 1500]> var_727_cast_fp16 = softmax(axis = var_582, x = aw_83_cast_fp16)[name = tensor<string, []>("op_727_cast_fp16")];
            tensor<fp16, [1, 1500, 1, 1500]> var_728_cast_fp16 = softmax(axis = var_582, x = aw_85_cast_fp16)[name = tensor<string, []>("op_728_cast_fp16")];
            tensor<fp16, [1, 1500, 1, 1500]> var_729_cast_fp16 = softmax(axis = var_582, x = aw_87_cast_fp16)[name = tensor<string, []>("op_729_cast_fp16")];
            tensor<fp16, [1, 1500, 1, 1500]> var_730_cast_fp16 = softmax(axis = var_582, x = aw_89_cast_fp16)[name = tensor<string, []>("op_730_cast_fp16")];
            tensor<fp16, [1, 1500, 1, 1500]> var_731_cast_fp16 = softmax(axis = var_582, x = aw_91_cast_fp16)[name = tensor<string, []>("op_731_cast_fp16")];
            tensor<fp16, [1, 1500, 1, 1500]> var_732_cast_fp16 = softmax(axis = var_582, x = aw_93_cast_fp16)[name = tensor<string, []>("op_732_cast_fp16")];
            tensor<fp16, [1, 1500, 1, 1500]> var_733_cast_fp16 = softmax(axis = var_582, x = aw_95_cast_fp16)[name = tensor<string, []>("op_733_cast_fp16")];
            tensor<string, []> var_735_equation_0 = const()[name = tensor<string, []>("op_735_equation_0"), val = tensor<string, []>("bchk,bkhq->bchq")];
            tensor<fp16, [1, 64, 1, 1500]> var_735_cast_fp16 = einsum(equation = var_735_equation_0, values = (var_669_cast_fp16_0, var_718_cast_fp16))[name = tensor<string, []>("op_735_cast_fp16")];
            tensor<string, []> var_737_equation_0 = const()[name = tensor<string, []>("op_737_equation_0"), val = tensor<string, []>("bchk,bkhq->bchq")];
            tensor<fp16, [1, 64, 1, 1500]> var_737_cast_fp16 = einsum(equation = var_737_equation_0, values = (var_669_cast_fp16_1, var_719_cast_fp16))[name = tensor<string, []>("op_737_cast_fp16")];
            tensor<string, []> var_739_equation_0 = const()[name = tensor<string, []>("op_739_equation_0"), val = tensor<string, []>("bchk,bkhq->bchq")];
            tensor<fp16, [1, 64, 1, 1500]> var_739_cast_fp16 = einsum(equation = var_739_equation_0, values = (var_669_cast_fp16_2, var_720_cast_fp16))[name = tensor<string, []>("op_739_cast_fp16")];
            tensor<string, []> var_741_equation_0 = const()[name = tensor<string, []>("op_741_equation_0"), val = tensor<string, []>("bchk,bkhq->bchq")];
            tensor<fp16, [1, 64, 1, 1500]> var_741_cast_fp16 = einsum(equation = var_741_equation_0, values = (var_669_cast_fp16_3, var_721_cast_fp16))[name = tensor<string, []>("op_741_cast_fp16")];
            tensor<string, []> var_743_equation_0 = const()[name = tensor<string, []>("op_743_equation_0"), val = tensor<string, []>("bchk,bkhq->bchq")];
            tensor<fp16, [1, 64, 1, 1500]> var_743_cast_fp16 = einsum(equation = var_743_equation_0, values = (var_669_cast_fp16_4, var_722_cast_fp16))[name = tensor<string, []>("op_743_cast_fp16")];
            tensor<string, []> var_745_equation_0 = const()[name = tensor<string, []>("op_745_equation_0"), val = tensor<string, []>("bchk,bkhq->bchq")];
            tensor<fp16, [1, 64, 1, 1500]> var_745_cast_fp16 = einsum(equation = var_745_equation_0, values = (var_669_cast_fp16_5, var_723_cast_fp16))[name = tensor<string, []>("op_745_cast_fp16")];
            tensor<string, []> var_747_equation_0 = const()[name = tensor<string, []>("op_747_equation_0"), val = tensor<string, []>("bchk,bkhq->bchq")];
            tensor<fp16, [1, 64, 1, 1500]> var_747_cast_fp16 = einsum(equation = var_747_equation_0, values = (var_669_cast_fp16_6, var_724_cast_fp16))[name = tensor<string, []>("op_747_cast_fp16")];
            tensor<string, []> var_749_equation_0 = const()[name = tensor<string, []>("op_749_equation_0"), val = tensor<string, []>("bchk,bkhq->bchq")];
            tensor<fp16, [1, 64, 1, 1500]> var_749_cast_fp16 = einsum(equation = var_749_equation_0, values = (var_669_cast_fp16_7, var_725_cast_fp16))[name = tensor<string, []>("op_749_cast_fp16")];
            tensor<string, []> var_751_equation_0 = const()[name = tensor<string, []>("op_751_equation_0"), val = tensor<string, []>("bchk,bkhq->bchq")];
            tensor<fp16, [1, 64, 1, 1500]> var_751_cast_fp16 = einsum(equation = var_751_equation_0, values = (var_669_cast_fp16_8, var_726_cast_fp16))[name = tensor<string, []>("op_751_cast_fp16")];
            tensor<string, []> var_753_equation_0 = const()[name = tensor<string, []>("op_753_equation_0"), val = tensor<string, []>("bchk,bkhq->bchq")];
            tensor<fp16, [1, 64, 1, 1500]> var_753_cast_fp16 = einsum(equation = var_753_equation_0, values = (var_669_cast_fp16_9, var_727_cast_fp16))[name = tensor<string, []>("op_753_cast_fp16")];
            tensor<string, []> var_755_equation_0 = const()[name = tensor<string, []>("op_755_equation_0"), val = tensor<string, []>("bchk,bkhq->bchq")];
            tensor<fp16, [1, 64, 1, 1500]> var_755_cast_fp16 = einsum(equation = var_755_equation_0, values = (var_669_cast_fp16_10, var_728_cast_fp16))[name = tensor<string, []>("op_755_cast_fp16")];
            tensor<string, []> var_757_equation_0 = const()[name = tensor<string, []>("op_757_equation_0"), val = tensor<string, []>("bchk,bkhq->bchq")];
            tensor<fp16, [1, 64, 1, 1500]> var_757_cast_fp16 = einsum(equation = var_757_equation_0, values = (var_669_cast_fp16_11, var_729_cast_fp16))[name = tensor<string, []>("op_757_cast_fp16")];
            tensor<string, []> var_759_equation_0 = const()[name = tensor<string, []>("op_759_equation_0"), val = tensor<string, []>("bchk,bkhq->bchq")];
            tensor<fp16, [1, 64, 1, 1500]> var_759_cast_fp16 = einsum(equation = var_759_equation_0, values = (var_669_cast_fp16_12, var_730_cast_fp16))[name = tensor<string, []>("op_759_cast_fp16")];
            tensor<string, []> var_761_equation_0 = const()[name = tensor<string, []>("op_761_equation_0"), val = tensor<string, []>("bchk,bkhq->bchq")];
            tensor<fp16, [1, 64, 1, 1500]> var_761_cast_fp16 = einsum(equation = var_761_equation_0, values = (var_669_cast_fp16_13, var_731_cast_fp16))[name = tensor<string, []>("op_761_cast_fp16")];
            tensor<string, []> var_763_equation_0 = const()[name = tensor<string, []>("op_763_equation_0"), val = tensor<string, []>("bchk,bkhq->bchq")];
            tensor<fp16, [1, 64, 1, 1500]> var_763_cast_fp16 = einsum(equation = var_763_equation_0, values = (var_669_cast_fp16_14, var_732_cast_fp16))[name = tensor<string, []>("op_763_cast_fp16")];
            tensor<string, []> var_765_equation_0 = const()[name = tensor<string, []>("op_765_equation_0"), val = tensor<string, []>("bchk,bkhq->bchq")];
            tensor<fp16, [1, 64, 1, 1500]> var_765_cast_fp16 = einsum(equation = var_765_equation_0, values = (var_669_cast_fp16_15, var_733_cast_fp16))[name = tensor<string, []>("op_765_cast_fp16")];
            tensor<bool, []> input_25_interleave_0 = const()[name = tensor<string, []>("input_25_interleave_0"), val = tensor<bool, []>(false)];
            tensor<fp16, [1, 1024, 1, 1500]> input_25_cast_fp16 = concat(axis = var_582, interleave = input_25_interleave_0, values = (var_735_cast_fp16, var_737_cast_fp16, var_739_cast_fp16, var_741_cast_fp16, var_743_cast_fp16, var_745_cast_fp16, var_747_cast_fp16, var_749_cast_fp16, var_751_cast_fp16, var_753_cast_fp16, var_755_cast_fp16, var_757_cast_fp16, var_759_cast_fp16, var_761_cast_fp16, var_763_cast_fp16, var_765_cast_fp16))[name = tensor<string, []>("input_25_cast_fp16")];
            tensor<string, []> var_774_pad_type_0 = const()[name = tensor<string, []>("op_774_pad_type_0"), val = tensor<string, []>("valid")];
            tensor<int32, [2]> var_774_strides_0 = const()[name = tensor<string, []>("op_774_strides_0"), val = tensor<int32, [2]>([1, 1])];
            tensor<int32, [4]> var_774_pad_0 = const()[name = tensor<string, []>("op_774_pad_0"), val = tensor<int32, [4]>([0, 0, 0, 0])];
            tensor<int32, [2]> var_774_dilations_0 = const()[name = tensor<string, []>("op_774_dilations_0"), val = tensor<int32, [2]>([1, 1])];
            tensor<int32, []> var_774_groups_0 = const()[name = tensor<string, []>("op_774_groups_0"), val = tensor<int32, []>(1)];
            tensor<fp16, [1024, 1024, 1, 1]> blocks_2_attn_out_weight_to_fp16 = const()[name = tensor<string, []>("blocks_2_attn_out_weight_to_fp16"), val = tensor<fp16, [1024, 1024, 1, 1]>(BLOBFILE(path = tensor<string, []>("@model_path/weights/weight.bin"), offset = tensor<uint64, []>(66542272)))];
            tensor<fp16, [1024]> blocks_2_attn_out_bias_to_fp16 = const()[name = tensor<string, []>("blocks_2_attn_out_bias_to_fp16"), val = tensor<fp16, [1024]>(BLOBFILE(path = tensor<string, []>("@model_path/weights/weight.bin"), offset = tensor<uint64, []>(68639488)))];
            tensor<fp16, [1, 1024, 1, 1500]> var_774_cast_fp16 = conv(bias = blocks_2_attn_out_bias_to_fp16, dilations = var_774_dilations_0, groups = var_774_groups_0, pad = var_774_pad_0, pad_type = var_774_pad_type_0, strides = var_774_strides_0, weight = blocks_2_attn_out_weight_to_fp16, x = input_25_cast_fp16)[name = tensor<string, []>("op_774_cast_fp16")];
            tensor<fp16, [1, 1024, 1, 1500]> inputs_11_cast_fp16 = add(x = inputs_9_cast_fp16, y = var_774_cast_fp16)[name = tensor<string, []>("inputs_11_cast_fp16")];
            tensor<int32, [1]> input_27_axes_0 = const()[name = tensor<string, []>("input_27_axes_0"), val = tensor<int32, [1]>([1])];
            tensor<fp16, [1024]> input_27_gamma_0_to_fp16 = const()[name = tensor<string, []>("input_27_gamma_0_to_fp16"), val = tensor<fp16, [1024]>(BLOBFILE(path = tensor<string, []>("@model_path/weights/weight.bin"), offset = tensor<uint64, []>(68641600)))];
            tensor<fp16, [1024]> input_27_beta_0_to_fp16 = const()[name = tensor<string, []>("input_27_beta_0_to_fp16"), val = tensor<fp16, [1024]>(BLOBFILE(path = tensor<string, []>("@model_path/weights/weight.bin"), offset = tensor<uint64, []>(68643712)))];
            tensor<fp16, []> var_784_to_fp16 = const()[name = tensor<string, []>("op_784_to_fp16"), val = tensor<fp16, []>(0x1.5p-17)];
            tensor<fp16, [1, 1024, 1, 1500]> input_27_cast_fp16 = layer_norm(axes = input_27_axes_0, beta = input_27_beta_0_to_fp16, epsilon = var_784_to_fp16, gamma = input_27_gamma_0_to_fp16, x = inputs_11_cast_fp16)[name = tensor<string, []>("input_27_cast_fp16")];
            tensor<string, []> input_29_pad_type_0 = const()[name = tensor<string, []>("input_29_pad_type_0"), val = tensor<string, []>("valid")];
            tensor<int32, [2]> input_29_strides_0 = const()[name = tensor<string, []>("input_29_strides_0"), val = tensor<int32, [2]>([1, 1])];
            tensor<int32, [4]> input_29_pad_0 = const()[name = tensor<string, []>("input_29_pad_0"), val = tensor<int32, [4]>([0, 0, 0, 0])];
            tensor<int32, [2]> input_29_dilations_0 = const()[name = tensor<string, []>("input_29_dilations_0"), val = tensor<int32, [2]>([1, 1])];
            tensor<int32, []> input_29_groups_0 = const()[name = tensor<string, []>("input_29_groups_0"), val = tensor<int32, []>(1)];
            tensor<fp16, [4096, 1024, 1, 1]> blocks_2_mlp_0_weight_to_fp16 = const()[name = tensor<string, []>("blocks_2_mlp_0_weight_to_fp16"), val = tensor<fp16, [4096, 1024, 1, 1]>(BLOBFILE(path = tensor<string, []>("@model_path/weights/weight.bin"), offset = tensor<uint64, []>(68645824)))];
            tensor<fp16, [4096]> blocks_2_mlp_0_bias_to_fp16 = const()[name = tensor<string, []>("blocks_2_mlp_0_bias_to_fp16"), val = tensor<fp16, [4096]>(BLOBFILE(path = tensor<string, []>("@model_path/weights/weight.bin"), offset = tensor<uint64, []>(77034496)))];
            tensor<fp16, [1, 4096, 1, 1500]> input_29_cast_fp16 = conv(bias = blocks_2_mlp_0_bias_to_fp16, dilations = input_29_dilations_0, groups = input_29_groups_0, pad = input_29_pad_0, pad_type = input_29_pad_type_0, strides = input_29_strides_0, weight = blocks_2_mlp_0_weight_to_fp16, x = input_27_cast_fp16)[name = tensor<string, []>("input_29_cast_fp16")];
            tensor<string, []> input_31_mode_0 = const()[name = tensor<string, []>("input_31_mode_0"), val = tensor<string, []>("EXACT")];
            tensor<fp16, [1, 4096, 1, 1500]> input_31_cast_fp16 = gelu(mode = input_31_mode_0, x = input_29_cast_fp16)[name = tensor<string, []>("input_31_cast_fp16")];
            tensor<string, []> var_810_pad_type_0 = const()[name = tensor<string, []>("op_810_pad_type_0"), val = tensor<string, []>("valid")];
            tensor<int32, [2]> var_810_strides_0 = const()[name = tensor<string, []>("op_810_strides_0"), val = tensor<int32, [2]>([1, 1])];
            tensor<int32, [4]> var_810_pad_0 = const()[name = tensor<string, []>("op_810_pad_0"), val = tensor<int32, [4]>([0, 0, 0, 0])];
            tensor<int32, [2]> var_810_dilations_0 = const()[name = tensor<string, []>("op_810_dilations_0"), val = tensor<int32, [2]>([1, 1])];
            tensor<int32, []> var_810_groups_0 = const()[name = tensor<string, []>("op_810_groups_0"), val = tensor<int32, []>(1)];
            tensor<fp16, [1024, 4096, 1, 1]> blocks_2_mlp_2_weight_to_fp16 = const()[name = tensor<string, []>("blocks_2_mlp_2_weight_to_fp16"), val = tensor<fp16, [1024, 4096, 1, 1]>(BLOBFILE(path = tensor<string, []>("@model_path/weights/weight.bin"), offset = tensor<uint64, []>(77042752)))];
            tensor<fp16, [1024]> blocks_2_mlp_2_bias_to_fp16 = const()[name = tensor<string, []>("blocks_2_mlp_2_bias_to_fp16"), val = tensor<fp16, [1024]>(BLOBFILE(path = tensor<string, []>("@model_path/weights/weight.bin"), offset = tensor<uint64, []>(85431424)))];
            tensor<fp16, [1, 1024, 1, 1500]> var_810_cast_fp16 = conv(bias = blocks_2_mlp_2_bias_to_fp16, dilations = var_810_dilations_0, groups = var_810_groups_0, pad = var_810_pad_0, pad_type = var_810_pad_type_0, strides = var_810_strides_0, weight = blocks_2_mlp_2_weight_to_fp16, x = input_31_cast_fp16)[name = tensor<string, []>("op_810_cast_fp16")];
            tensor<fp16, [1, 1024, 1, 1500]> inputs_13_cast_fp16 = add(x = inputs_11_cast_fp16, y = var_810_cast_fp16)[name = tensor<string, []>("inputs_13_cast_fp16")];
            tensor<int32, []> var_819 = const()[name = tensor<string, []>("op_819"), val = tensor<int32, []>(1)];
            tensor<int32, [1]> input_33_axes_0 = const()[name = tensor<string, []>("input_33_axes_0"), val = tensor<int32, [1]>([1])];
            tensor<fp16, [1024]> input_33_gamma_0_to_fp16 = const()[name = tensor<string, []>("input_33_gamma_0_to_fp16"), val = tensor<fp16, [1024]>(BLOBFILE(path = tensor<string, []>("@model_path/weights/weight.bin"), offset = tensor<uint64, []>(85433536)))];
            tensor<fp16, [1024]> input_33_beta_0_to_fp16 = const()[name = tensor<string, []>("input_33_beta_0_to_fp16"), val = tensor<fp16, [1024]>(BLOBFILE(path = tensor<string, []>("@model_path/weights/weight.bin"), offset = tensor<uint64, []>(85435648)))];
            tensor<fp16, []> var_835_to_fp16 = const()[name = tensor<string, []>("op_835_to_fp16"), val = tensor<fp16, []>(0x1.5p-17)];
            tensor<fp16, [1, 1024, 1, 1500]> input_33_cast_fp16 = layer_norm(axes = input_33_axes_0, beta = input_33_beta_0_to_fp16, epsilon = var_835_to_fp16, gamma = input_33_gamma_0_to_fp16, x = inputs_13_cast_fp16)[name = tensor<string, []>("input_33_cast_fp16")];
            tensor<string, []> q_7_pad_type_0 = const()[name = tensor<string, []>("q_7_pad_type_0"), val = tensor<string, []>("valid")];
            tensor<int32, [2]> q_7_strides_0 = const()[name = tensor<string, []>("q_7_strides_0"), val = tensor<int32, [2]>([1, 1])];
            tensor<int32, [4]> q_7_pad_0 = const()[name = tensor<string, []>("q_7_pad_0"), val = tensor<int32, [4]>([0, 0, 0, 0])];
            tensor<int32, [2]> q_7_dilations_0 = const()[name = tensor<string, []>("q_7_dilations_0"), val = tensor<int32, [2]>([1, 1])];
            tensor<int32, []> q_7_groups_0 = const()[name = tensor<string, []>("q_7_groups_0"), val = tensor<int32, []>(1)];
            tensor<fp16, [1024, 1024, 1, 1]> var_870_weight_0_to_fp16 = const()[name = tensor<string, []>("op_870_weight_0_to_fp16"), val = tensor<fp16, [1024, 1024, 1, 1]>(BLOBFILE(path = tensor<string, []>("@model_path/weights/weight.bin"), offset = tensor<uint64, []>(85437760)))];
            tensor<fp16, [1024]> var_870_bias_0_to_fp16 = const()[name = tensor<string, []>("op_870_bias_0_to_fp16"), val = tensor<fp16, [1024]>(BLOBFILE(path = tensor<string, []>("@model_path/weights/weight.bin"), offset = tensor<uint64, []>(87534976)))];
            tensor<fp16, [1, 1024, 1, 1500]> var_870_cast_fp16 = conv(bias = var_870_bias_0_to_fp16, dilations = q_7_dilations_0, groups = q_7_groups_0, pad = q_7_pad_0, pad_type = q_7_pad_type_0, strides = q_7_strides_0, weight = var_870_weight_0_to_fp16, x = input_33_cast_fp16)[name = tensor<string, []>("op_870_cast_fp16")];
            tensor<string, []> k_7_pad_type_0 = const()[name = tensor<string, []>("k_7_pad_type_0"), val = tensor<string, []>("valid")];
            tensor<int32, [2]> k_7_strides_0 = const()[name = tensor<string, []>("k_7_strides_0"), val = tensor<int32, [2]>([1, 1])];
            tensor<int32, [4]> k_7_pad_0 = const()[name = tensor<string, []>("k_7_pad_0"), val = tensor<int32, [4]>([0, 0, 0, 0])];
            tensor<int32, [2]> k_7_dilations_0 = const()[name = tensor<string, []>("k_7_dilations_0"), val = tensor<int32, [2]>([1, 1])];
            tensor<int32, []> k_7_groups_0 = const()[name = tensor<string, []>("k_7_groups_0"), val = tensor<int32, []>(1)];
            tensor<fp16, [1024, 1024, 1, 1]> blocks_3_attn_key_weight_to_fp16 = const()[name = tensor<string, []>("blocks_3_attn_key_weight_to_fp16"), val = tensor<fp16, [1024, 1024, 1, 1]>(BLOBFILE(path = tensor<string, []>("@model_path/weights/weight.bin"), offset = tensor<uint64, []>(87537088)))];
            tensor<fp16, [1, 1024, 1, 1500]> k_7_cast_fp16 = conv(dilations = k_7_dilations_0, groups = k_7_groups_0, pad = k_7_pad_0, pad_type = k_7_pad_type_0, strides = k_7_strides_0, weight = blocks_3_attn_key_weight_to_fp16, x = input_33_cast_fp16)[name = tensor<string, []>("k_7_cast_fp16")];
            tensor<string, []> var_868_pad_type_0 = const()[name = tensor<string, []>("op_868_pad_type_0"), val = tensor<string, []>("valid")];
            tensor<int32, [2]> var_868_strides_0 = const()[name = tensor<string, []>("op_868_strides_0"), val = tensor<int32, [2]>([1, 1])];
            tensor<int32, [4]> var_868_pad_0 = const()[name = tensor<string, []>("op_868_pad_0"), val = tensor<int32, [4]>([0, 0, 0, 0])];
            tensor<int32, [2]> var_868_dilations_0 = const()[name = tensor<string, []>("op_868_dilations_0"), val = tensor<int32, [2]>([1, 1])];
            tensor<int32, []> var_868_groups_0 = const()[name = tensor<string, []>("op_868_groups_0"), val = tensor<int32, []>(1)];
            tensor<fp16, [1024, 1024, 1, 1]> blocks_3_attn_value_weight_to_fp16 = const()[name = tensor<string, []>("blocks_3_attn_value_weight_to_fp16"), val = tensor<fp16, [1024, 1024, 1, 1]>(BLOBFILE(path = tensor<string, []>("@model_path/weights/weight.bin"), offset = tensor<uint64, []>(89634304)))];
            tensor<fp16, [1024]> blocks_3_attn_value_bias_to_fp16 = const()[name = tensor<string, []>("blocks_3_attn_value_bias_to_fp16"), val = tensor<fp16, [1024]>(BLOBFILE(path = tensor<string, []>("@model_path/weights/weight.bin"), offset = tensor<uint64, []>(91731520)))];
            tensor<fp16, [1, 1024, 1, 1500]> var_868_cast_fp16 = conv(bias = blocks_3_attn_value_bias_to_fp16, dilations = var_868_dilations_0, groups = var_868_groups_0, pad = var_868_pad_0, pad_type = var_868_pad_type_0, strides = var_868_strides_0, weight = blocks_3_attn_value_weight_to_fp16, x = input_33_cast_fp16)[name = tensor<string, []>("op_868_cast_fp16")];
            tensor<int32, [16]> tile_9 = const()[name = tensor<string, []>("tile_9"), val = tensor<int32, [16]>([64, 64, 64, 64, 64, 64, 64, 64, 64, 64, 64, 64, 64, 64, 64, 64])];
            tensor<int32, []> var_871_axis_0 = const()[name = tensor<string, []>("op_871_axis_0"), val = tensor<int32, []>(1)];
            tensor<fp16, [1, 64, 1, 1500]> var_871_cast_fp16_0, tensor<fp16, [1, 64, 1, 1500]> var_871_cast_fp16_1, tensor<fp16, [1, 64, 1, 1500]> var_871_cast_fp16_2, tensor<fp16, [1, 64, 1, 1500]> var_871_cast_fp16_3, tensor<fp16, [1, 64, 1, 1500]> var_871_cast_fp16_4, tensor<fp16, [1, 64, 1, 1500]> var_871_cast_fp16_5, tensor<fp16, [1, 64, 1, 1500]> var_871_cast_fp16_6, tensor<fp16, [1, 64, 1, 1500]> var_871_cast_fp16_7, tensor<fp16, [1, 64, 1, 1500]> var_871_cast_fp16_8, tensor<fp16, [1, 64, 1, 1500]> var_871_cast_fp16_9, tensor<fp16, [1, 64, 1, 1500]> var_871_cast_fp16_10, tensor<fp16, [1, 64, 1, 1500]> var_871_cast_fp16_11, tensor<fp16, [1, 64, 1, 1500]> var_871_cast_fp16_12, tensor<fp16, [1, 64, 1, 1500]> var_871_cast_fp16_13, tensor<fp16, [1, 64, 1, 1500]> var_871_cast_fp16_14, tensor<fp16, [1, 64, 1, 1500]> var_871_cast_fp16_15 = split(axis = var_871_axis_0, split_sizes = tile_9, x = var_870_cast_fp16)[name = tensor<string, []>("op_871_cast_fp16")];
            tensor<int32, [4]> var_888_perm_0 = const()[name = tensor<string, []>("op_888_perm_0"), val = tensor<int32, [4]>([0, 3, 2, 1])];
            tensor<int32, [16]> tile_10 = const()[name = tensor<string, []>("tile_10"), val = tensor<int32, [16]>([64, 64, 64, 64, 64, 64, 64, 64, 64, 64, 64, 64, 64, 64, 64, 64])];
            tensor<int32, []> var_889_axis_0 = const()[name = tensor<string, []>("op_889_axis_0"), val = tensor<int32, []>(3)];
            tensor<fp16, [1, 1500, 1, 1024]> var_888_cast_fp16 = transpose(perm = var_888_perm_0, x = k_7_cast_fp16)[name = tensor<string, []>("transpose_21")];
            tensor<fp16, [1, 1500, 1, 64]> var_889_cast_fp16_0, tensor<fp16, [1, 1500, 1, 64]> var_889_cast_fp16_1, tensor<fp16, [1, 1500, 1, 64]> var_889_cast_fp16_2, tensor<fp16, [1, 1500, 1, 64]> var_889_cast_fp16_3, tensor<fp16, [1, 1500, 1, 64]> var_889_cast_fp16_4, tensor<fp16, [1, 1500, 1, 64]> var_889_cast_fp16_5, tensor<fp16, [1, 1500, 1, 64]> var_889_cast_fp16_6, tensor<fp16, [1, 1500, 1, 64]> var_889_cast_fp16_7, tensor<fp16, [1, 1500, 1, 64]> var_889_cast_fp16_8, tensor<fp16, [1, 1500, 1, 64]> var_889_cast_fp16_9, tensor<fp16, [1, 1500, 1, 64]> var_889_cast_fp16_10, tensor<fp16, [1, 1500, 1, 64]> var_889_cast_fp16_11, tensor<fp16, [1, 1500, 1, 64]> var_889_cast_fp16_12, tensor<fp16, [1, 1500, 1, 64]> var_889_cast_fp16_13, tensor<fp16, [1, 1500, 1, 64]> var_889_cast_fp16_14, tensor<fp16, [1, 1500, 1, 64]> var_889_cast_fp16_15 = split(axis = var_889_axis_0, split_sizes = tile_10, x = var_888_cast_fp16)[name = tensor<string, []>("op_889_cast_fp16")];
            tensor<int32, [16]> tile_11 = const()[name = tensor<string, []>("tile_11"), val = tensor<int32, [16]>([64, 64, 64, 64, 64, 64, 64, 64, 64, 64, 64, 64, 64, 64, 64, 64])];
            tensor<int32, []> var_906_axis_0 = const()[name = tensor<string, []>("op_906_axis_0"), val = tensor<int32, []>(1)];
            tensor<fp16, [1, 64, 1, 1500]> var_906_cast_fp16_0, tensor<fp16, [1, 64, 1, 1500]> var_906_cast_fp16_1, tensor<fp16, [1, 64, 1, 1500]> var_906_cast_fp16_2, tensor<fp16, [1, 64, 1, 1500]> var_906_cast_fp16_3, tensor<fp16, [1, 64, 1, 1500]> var_906_cast_fp16_4, tensor<fp16, [1, 64, 1, 1500]> var_906_cast_fp16_5, tensor<fp16, [1, 64, 1, 1500]> var_906_cast_fp16_6, tensor<fp16, [1, 64, 1, 1500]> var_906_cast_fp16_7, tensor<fp16, [1, 64, 1, 1500]> var_906_cast_fp16_8, tensor<fp16, [1, 64, 1, 1500]> var_906_cast_fp16_9, tensor<fp16, [1, 64, 1, 1500]> var_906_cast_fp16_10, tensor<fp16, [1, 64, 1, 1500]> var_906_cast_fp16_11, tensor<fp16, [1, 64, 1, 1500]> var_906_cast_fp16_12, tensor<fp16, [1, 64, 1, 1500]> var_906_cast_fp16_13, tensor<fp16, [1, 64, 1, 1500]> var_906_cast_fp16_14, tensor<fp16, [1, 64, 1, 1500]> var_906_cast_fp16_15 = split(axis = var_906_axis_0, split_sizes = tile_11, x = var_868_cast_fp16)[name = tensor<string, []>("op_906_cast_fp16")];
            tensor<string, []> aw_97_equation_0 = const()[name = tensor<string, []>("aw_97_equation_0"), val = tensor<string, []>("bkhc,bchq->bkhq")];
            tensor<fp16, [1, 1500, 1, 1500]> aw_97_cast_fp16 = einsum(equation = aw_97_equation_0, values = (var_889_cast_fp16_0, var_871_cast_fp16_0))[name = tensor<string, []>("aw_97_cast_fp16")];
            tensor<string, []> aw_99_equation_0 = const()[name = tensor<string, []>("aw_99_equation_0"), val = tensor<string, []>("bkhc,bchq->bkhq")];
            tensor<fp16, [1, 1500, 1, 1500]> aw_99_cast_fp16 = einsum(equation = aw_99_equation_0, values = (var_889_cast_fp16_1, var_871_cast_fp16_1))[name = tensor<string, []>("aw_99_cast_fp16")];
            tensor<string, []> aw_101_equation_0 = const()[name = tensor<string, []>("aw_101_equation_0"), val = tensor<string, []>("bkhc,bchq->bkhq")];
            tensor<fp16, [1, 1500, 1, 1500]> aw_101_cast_fp16 = einsum(equation = aw_101_equation_0, values = (var_889_cast_fp16_2, var_871_cast_fp16_2))[name = tensor<string, []>("aw_101_cast_fp16")];
            tensor<string, []> aw_103_equation_0 = const()[name = tensor<string, []>("aw_103_equation_0"), val = tensor<string, []>("bkhc,bchq->bkhq")];
            tensor<fp16, [1, 1500, 1, 1500]> aw_103_cast_fp16 = einsum(equation = aw_103_equation_0, values = (var_889_cast_fp16_3, var_871_cast_fp16_3))[name = tensor<string, []>("aw_103_cast_fp16")];
            tensor<string, []> aw_105_equation_0 = const()[name = tensor<string, []>("aw_105_equation_0"), val = tensor<string, []>("bkhc,bchq->bkhq")];
            tensor<fp16, [1, 1500, 1, 1500]> aw_105_cast_fp16 = einsum(equation = aw_105_equation_0, values = (var_889_cast_fp16_4, var_871_cast_fp16_4))[name = tensor<string, []>("aw_105_cast_fp16")];
            tensor<string, []> aw_107_equation_0 = const()[name = tensor<string, []>("aw_107_equation_0"), val = tensor<string, []>("bkhc,bchq->bkhq")];
            tensor<fp16, [1, 1500, 1, 1500]> aw_107_cast_fp16 = einsum(equation = aw_107_equation_0, values = (var_889_cast_fp16_5, var_871_cast_fp16_5))[name = tensor<string, []>("aw_107_cast_fp16")];
            tensor<string, []> aw_109_equation_0 = const()[name = tensor<string, []>("aw_109_equation_0"), val = tensor<string, []>("bkhc,bchq->bkhq")];
            tensor<fp16, [1, 1500, 1, 1500]> aw_109_cast_fp16 = einsum(equation = aw_109_equation_0, values = (var_889_cast_fp16_6, var_871_cast_fp16_6))[name = tensor<string, []>("aw_109_cast_fp16")];
            tensor<string, []> aw_111_equation_0 = const()[name = tensor<string, []>("aw_111_equation_0"), val = tensor<string, []>("bkhc,bchq->bkhq")];
            tensor<fp16, [1, 1500, 1, 1500]> aw_111_cast_fp16 = einsum(equation = aw_111_equation_0, values = (var_889_cast_fp16_7, var_871_cast_fp16_7))[name = tensor<string, []>("aw_111_cast_fp16")];
            tensor<string, []> aw_113_equation_0 = const()[name = tensor<string, []>("aw_113_equation_0"), val = tensor<string, []>("bkhc,bchq->bkhq")];
            tensor<fp16, [1, 1500, 1, 1500]> aw_113_cast_fp16 = einsum(equation = aw_113_equation_0, values = (var_889_cast_fp16_8, var_871_cast_fp16_8))[name = tensor<string, []>("aw_113_cast_fp16")];
            tensor<string, []> aw_115_equation_0 = const()[name = tensor<string, []>("aw_115_equation_0"), val = tensor<string, []>("bkhc,bchq->bkhq")];
            tensor<fp16, [1, 1500, 1, 1500]> aw_115_cast_fp16 = einsum(equation = aw_115_equation_0, values = (var_889_cast_fp16_9, var_871_cast_fp16_9))[name = tensor<string, []>("aw_115_cast_fp16")];
            tensor<string, []> aw_117_equation_0 = const()[name = tensor<string, []>("aw_117_equation_0"), val = tensor<string, []>("bkhc,bchq->bkhq")];
            tensor<fp16, [1, 1500, 1, 1500]> aw_117_cast_fp16 = einsum(equation = aw_117_equation_0, values = (var_889_cast_fp16_10, var_871_cast_fp16_10))[name = tensor<string, []>("aw_117_cast_fp16")];
            tensor<string, []> aw_119_equation_0 = const()[name = tensor<string, []>("aw_119_equation_0"), val = tensor<string, []>("bkhc,bchq->bkhq")];
            tensor<fp16, [1, 1500, 1, 1500]> aw_119_cast_fp16 = einsum(equation = aw_119_equation_0, values = (var_889_cast_fp16_11, var_871_cast_fp16_11))[name = tensor<string, []>("aw_119_cast_fp16")];
            tensor<string, []> aw_121_equation_0 = const()[name = tensor<string, []>("aw_121_equation_0"), val = tensor<string, []>("bkhc,bchq->bkhq")];
            tensor<fp16, [1, 1500, 1, 1500]> aw_121_cast_fp16 = einsum(equation = aw_121_equation_0, values = (var_889_cast_fp16_12, var_871_cast_fp16_12))[name = tensor<string, []>("aw_121_cast_fp16")];
            tensor<string, []> aw_123_equation_0 = const()[name = tensor<string, []>("aw_123_equation_0"), val = tensor<string, []>("bkhc,bchq->bkhq")];
            tensor<fp16, [1, 1500, 1, 1500]> aw_123_cast_fp16 = einsum(equation = aw_123_equation_0, values = (var_889_cast_fp16_13, var_871_cast_fp16_13))[name = tensor<string, []>("aw_123_cast_fp16")];
            tensor<string, []> aw_125_equation_0 = const()[name = tensor<string, []>("aw_125_equation_0"), val = tensor<string, []>("bkhc,bchq->bkhq")];
            tensor<fp16, [1, 1500, 1, 1500]> aw_125_cast_fp16 = einsum(equation = aw_125_equation_0, values = (var_889_cast_fp16_14, var_871_cast_fp16_14))[name = tensor<string, []>("aw_125_cast_fp16")];
            tensor<string, []> aw_127_equation_0 = const()[name = tensor<string, []>("aw_127_equation_0"), val = tensor<string, []>("bkhc,bchq->bkhq")];
            tensor<fp16, [1, 1500, 1, 1500]> aw_127_cast_fp16 = einsum(equation = aw_127_equation_0, values = (var_889_cast_fp16_15, var_871_cast_fp16_15))[name = tensor<string, []>("aw_127_cast_fp16")];
            tensor<fp16, [1, 1500, 1, 1500]> var_955_cast_fp16 = softmax(axis = var_819, x = aw_97_cast_fp16)[name = tensor<string, []>("op_955_cast_fp16")];
            tensor<fp16, [1, 1500, 1, 1500]> var_956_cast_fp16 = softmax(axis = var_819, x = aw_99_cast_fp16)[name = tensor<string, []>("op_956_cast_fp16")];
            tensor<fp16, [1, 1500, 1, 1500]> var_957_cast_fp16 = softmax(axis = var_819, x = aw_101_cast_fp16)[name = tensor<string, []>("op_957_cast_fp16")];
            tensor<fp16, [1, 1500, 1, 1500]> var_958_cast_fp16 = softmax(axis = var_819, x = aw_103_cast_fp16)[name = tensor<string, []>("op_958_cast_fp16")];
            tensor<fp16, [1, 1500, 1, 1500]> var_959_cast_fp16 = softmax(axis = var_819, x = aw_105_cast_fp16)[name = tensor<string, []>("op_959_cast_fp16")];
            tensor<fp16, [1, 1500, 1, 1500]> var_960_cast_fp16 = softmax(axis = var_819, x = aw_107_cast_fp16)[name = tensor<string, []>("op_960_cast_fp16")];
            tensor<fp16, [1, 1500, 1, 1500]> var_961_cast_fp16 = softmax(axis = var_819, x = aw_109_cast_fp16)[name = tensor<string, []>("op_961_cast_fp16")];
            tensor<fp16, [1, 1500, 1, 1500]> var_962_cast_fp16 = softmax(axis = var_819, x = aw_111_cast_fp16)[name = tensor<string, []>("op_962_cast_fp16")];
            tensor<fp16, [1, 1500, 1, 1500]> var_963_cast_fp16 = softmax(axis = var_819, x = aw_113_cast_fp16)[name = tensor<string, []>("op_963_cast_fp16")];
            tensor<fp16, [1, 1500, 1, 1500]> var_964_cast_fp16 = softmax(axis = var_819, x = aw_115_cast_fp16)[name = tensor<string, []>("op_964_cast_fp16")];
            tensor<fp16, [1, 1500, 1, 1500]> var_965_cast_fp16 = softmax(axis = var_819, x = aw_117_cast_fp16)[name = tensor<string, []>("op_965_cast_fp16")];
            tensor<fp16, [1, 1500, 1, 1500]> var_966_cast_fp16 = softmax(axis = var_819, x = aw_119_cast_fp16)[name = tensor<string, []>("op_966_cast_fp16")];
            tensor<fp16, [1, 1500, 1, 1500]> var_967_cast_fp16 = softmax(axis = var_819, x = aw_121_cast_fp16)[name = tensor<string, []>("op_967_cast_fp16")];
            tensor<fp16, [1, 1500, 1, 1500]> var_968_cast_fp16 = softmax(axis = var_819, x = aw_123_cast_fp16)[name = tensor<string, []>("op_968_cast_fp16")];
            tensor<fp16, [1, 1500, 1, 1500]> var_969_cast_fp16 = softmax(axis = var_819, x = aw_125_cast_fp16)[name = tensor<string, []>("op_969_cast_fp16")];
            tensor<fp16, [1, 1500, 1, 1500]> var_970_cast_fp16 = softmax(axis = var_819, x = aw_127_cast_fp16)[name = tensor<string, []>("op_970_cast_fp16")];
            tensor<string, []> var_972_equation_0 = const()[name = tensor<string, []>("op_972_equation_0"), val = tensor<string, []>("bchk,bkhq->bchq")];
            tensor<fp16, [1, 64, 1, 1500]> var_972_cast_fp16 = einsum(equation = var_972_equation_0, values = (var_906_cast_fp16_0, var_955_cast_fp16))[name = tensor<string, []>("op_972_cast_fp16")];
            tensor<string, []> var_974_equation_0 = const()[name = tensor<string, []>("op_974_equation_0"), val = tensor<string, []>("bchk,bkhq->bchq")];
            tensor<fp16, [1, 64, 1, 1500]> var_974_cast_fp16 = einsum(equation = var_974_equation_0, values = (var_906_cast_fp16_1, var_956_cast_fp16))[name = tensor<string, []>("op_974_cast_fp16")];
            tensor<string, []> var_976_equation_0 = const()[name = tensor<string, []>("op_976_equation_0"), val = tensor<string, []>("bchk,bkhq->bchq")];
            tensor<fp16, [1, 64, 1, 1500]> var_976_cast_fp16 = einsum(equation = var_976_equation_0, values = (var_906_cast_fp16_2, var_957_cast_fp16))[name = tensor<string, []>("op_976_cast_fp16")];
            tensor<string, []> var_978_equation_0 = const()[name = tensor<string, []>("op_978_equation_0"), val = tensor<string, []>("bchk,bkhq->bchq")];
            tensor<fp16, [1, 64, 1, 1500]> var_978_cast_fp16 = einsum(equation = var_978_equation_0, values = (var_906_cast_fp16_3, var_958_cast_fp16))[name = tensor<string, []>("op_978_cast_fp16")];
            tensor<string, []> var_980_equation_0 = const()[name = tensor<string, []>("op_980_equation_0"), val = tensor<string, []>("bchk,bkhq->bchq")];
            tensor<fp16, [1, 64, 1, 1500]> var_980_cast_fp16 = einsum(equation = var_980_equation_0, values = (var_906_cast_fp16_4, var_959_cast_fp16))[name = tensor<string, []>("op_980_cast_fp16")];
            tensor<string, []> var_982_equation_0 = const()[name = tensor<string, []>("op_982_equation_0"), val = tensor<string, []>("bchk,bkhq->bchq")];
            tensor<fp16, [1, 64, 1, 1500]> var_982_cast_fp16 = einsum(equation = var_982_equation_0, values = (var_906_cast_fp16_5, var_960_cast_fp16))[name = tensor<string, []>("op_982_cast_fp16")];
            tensor<string, []> var_984_equation_0 = const()[name = tensor<string, []>("op_984_equation_0"), val = tensor<string, []>("bchk,bkhq->bchq")];
            tensor<fp16, [1, 64, 1, 1500]> var_984_cast_fp16 = einsum(equation = var_984_equation_0, values = (var_906_cast_fp16_6, var_961_cast_fp16))[name = tensor<string, []>("op_984_cast_fp16")];
            tensor<string, []> var_986_equation_0 = const()[name = tensor<string, []>("op_986_equation_0"), val = tensor<string, []>("bchk,bkhq->bchq")];
            tensor<fp16, [1, 64, 1, 1500]> var_986_cast_fp16 = einsum(equation = var_986_equation_0, values = (var_906_cast_fp16_7, var_962_cast_fp16))[name = tensor<string, []>("op_986_cast_fp16")];
            tensor<string, []> var_988_equation_0 = const()[name = tensor<string, []>("op_988_equation_0"), val = tensor<string, []>("bchk,bkhq->bchq")];
            tensor<fp16, [1, 64, 1, 1500]> var_988_cast_fp16 = einsum(equation = var_988_equation_0, values = (var_906_cast_fp16_8, var_963_cast_fp16))[name = tensor<string, []>("op_988_cast_fp16")];
            tensor<string, []> var_990_equation_0 = const()[name = tensor<string, []>("op_990_equation_0"), val = tensor<string, []>("bchk,bkhq->bchq")];
            tensor<fp16, [1, 64, 1, 1500]> var_990_cast_fp16 = einsum(equation = var_990_equation_0, values = (var_906_cast_fp16_9, var_964_cast_fp16))[name = tensor<string, []>("op_990_cast_fp16")];
            tensor<string, []> var_992_equation_0 = const()[name = tensor<string, []>("op_992_equation_0"), val = tensor<string, []>("bchk,bkhq->bchq")];
            tensor<fp16, [1, 64, 1, 1500]> var_992_cast_fp16 = einsum(equation = var_992_equation_0, values = (var_906_cast_fp16_10, var_965_cast_fp16))[name = tensor<string, []>("op_992_cast_fp16")];
            tensor<string, []> var_994_equation_0 = const()[name = tensor<string, []>("op_994_equation_0"), val = tensor<string, []>("bchk,bkhq->bchq")];
            tensor<fp16, [1, 64, 1, 1500]> var_994_cast_fp16 = einsum(equation = var_994_equation_0, values = (var_906_cast_fp16_11, var_966_cast_fp16))[name = tensor<string, []>("op_994_cast_fp16")];
            tensor<string, []> var_996_equation_0 = const()[name = tensor<string, []>("op_996_equation_0"), val = tensor<string, []>("bchk,bkhq->bchq")];
            tensor<fp16, [1, 64, 1, 1500]> var_996_cast_fp16 = einsum(equation = var_996_equation_0, values = (var_906_cast_fp16_12, var_967_cast_fp16))[name = tensor<string, []>("op_996_cast_fp16")];
            tensor<string, []> var_998_equation_0 = const()[name = tensor<string, []>("op_998_equation_0"), val = tensor<string, []>("bchk,bkhq->bchq")];
            tensor<fp16, [1, 64, 1, 1500]> var_998_cast_fp16 = einsum(equation = var_998_equation_0, values = (var_906_cast_fp16_13, var_968_cast_fp16))[name = tensor<string, []>("op_998_cast_fp16")];
            tensor<string, []> var_1000_equation_0 = const()[name = tensor<string, []>("op_1000_equation_0"), val = tensor<string, []>("bchk,bkhq->bchq")];
            tensor<fp16, [1, 64, 1, 1500]> var_1000_cast_fp16 = einsum(equation = var_1000_equation_0, values = (var_906_cast_fp16_14, var_969_cast_fp16))[name = tensor<string, []>("op_1000_cast_fp16")];
            tensor<string, []> var_1002_equation_0 = const()[name = tensor<string, []>("op_1002_equation_0"), val = tensor<string, []>("bchk,bkhq->bchq")];
            tensor<fp16, [1, 64, 1, 1500]> var_1002_cast_fp16 = einsum(equation = var_1002_equation_0, values = (var_906_cast_fp16_15, var_970_cast_fp16))[name = tensor<string, []>("op_1002_cast_fp16")];
            tensor<bool, []> input_35_interleave_0 = const()[name = tensor<string, []>("input_35_interleave_0"), val = tensor<bool, []>(false)];
            tensor<fp16, [1, 1024, 1, 1500]> input_35_cast_fp16 = concat(axis = var_819, interleave = input_35_interleave_0, values = (var_972_cast_fp16, var_974_cast_fp16, var_976_cast_fp16, var_978_cast_fp16, var_980_cast_fp16, var_982_cast_fp16, var_984_cast_fp16, var_986_cast_fp16, var_988_cast_fp16, var_990_cast_fp16, var_992_cast_fp16, var_994_cast_fp16, var_996_cast_fp16, var_998_cast_fp16, var_1000_cast_fp16, var_1002_cast_fp16))[name = tensor<string, []>("input_35_cast_fp16")];
            tensor<string, []> var_1011_pad_type_0 = const()[name = tensor<string, []>("op_1011_pad_type_0"), val = tensor<string, []>("valid")];
            tensor<int32, [2]> var_1011_strides_0 = const()[name = tensor<string, []>("op_1011_strides_0"), val = tensor<int32, [2]>([1, 1])];
            tensor<int32, [4]> var_1011_pad_0 = const()[name = tensor<string, []>("op_1011_pad_0"), val = tensor<int32, [4]>([0, 0, 0, 0])];
            tensor<int32, [2]> var_1011_dilations_0 = const()[name = tensor<string, []>("op_1011_dilations_0"), val = tensor<int32, [2]>([1, 1])];
            tensor<int32, []> var_1011_groups_0 = const()[name = tensor<string, []>("op_1011_groups_0"), val = tensor<int32, []>(1)];
            tensor<fp16, [1024, 1024, 1, 1]> blocks_3_attn_out_weight_to_fp16 = const()[name = tensor<string, []>("blocks_3_attn_out_weight_to_fp16"), val = tensor<fp16, [1024, 1024, 1, 1]>(BLOBFILE(path = tensor<string, []>("@model_path/weights/weight.bin"), offset = tensor<uint64, []>(91733632)))];
            tensor<fp16, [1024]> blocks_3_attn_out_bias_to_fp16 = const()[name = tensor<string, []>("blocks_3_attn_out_bias_to_fp16"), val = tensor<fp16, [1024]>(BLOBFILE(path = tensor<string, []>("@model_path/weights/weight.bin"), offset = tensor<uint64, []>(93830848)))];
            tensor<fp16, [1, 1024, 1, 1500]> var_1011_cast_fp16 = conv(bias = blocks_3_attn_out_bias_to_fp16, dilations = var_1011_dilations_0, groups = var_1011_groups_0, pad = var_1011_pad_0, pad_type = var_1011_pad_type_0, strides = var_1011_strides_0, weight = blocks_3_attn_out_weight_to_fp16, x = input_35_cast_fp16)[name = tensor<string, []>("op_1011_cast_fp16")];
            tensor<fp16, [1, 1024, 1, 1500]> inputs_15_cast_fp16 = add(x = inputs_13_cast_fp16, y = var_1011_cast_fp16)[name = tensor<string, []>("inputs_15_cast_fp16")];
            tensor<int32, [1]> input_37_axes_0 = const()[name = tensor<string, []>("input_37_axes_0"), val = tensor<int32, [1]>([1])];
            tensor<fp16, [1024]> input_37_gamma_0_to_fp16 = const()[name = tensor<string, []>("input_37_gamma_0_to_fp16"), val = tensor<fp16, [1024]>(BLOBFILE(path = tensor<string, []>("@model_path/weights/weight.bin"), offset = tensor<uint64, []>(93832960)))];
            tensor<fp16, [1024]> input_37_beta_0_to_fp16 = const()[name = tensor<string, []>("input_37_beta_0_to_fp16"), val = tensor<fp16, [1024]>(BLOBFILE(path = tensor<string, []>("@model_path/weights/weight.bin"), offset = tensor<uint64, []>(93835072)))];
            tensor<fp16, []> var_1021_to_fp16 = const()[name = tensor<string, []>("op_1021_to_fp16"), val = tensor<fp16, []>(0x1.5p-17)];
            tensor<fp16, [1, 1024, 1, 1500]> input_37_cast_fp16 = layer_norm(axes = input_37_axes_0, beta = input_37_beta_0_to_fp16, epsilon = var_1021_to_fp16, gamma = input_37_gamma_0_to_fp16, x = inputs_15_cast_fp16)[name = tensor<string, []>("input_37_cast_fp16")];
            tensor<string, []> input_39_pad_type_0 = const()[name = tensor<string, []>("input_39_pad_type_0"), val = tensor<string, []>("valid")];
            tensor<int32, [2]> input_39_strides_0 = const()[name = tensor<string, []>("input_39_strides_0"), val = tensor<int32, [2]>([1, 1])];
            tensor<int32, [4]> input_39_pad_0 = const()[name = tensor<string, []>("input_39_pad_0"), val = tensor<int32, [4]>([0, 0, 0, 0])];
            tensor<int32, [2]> input_39_dilations_0 = const()[name = tensor<string, []>("input_39_dilations_0"), val = tensor<int32, [2]>([1, 1])];
            tensor<int32, []> input_39_groups_0 = const()[name = tensor<string, []>("input_39_groups_0"), val = tensor<int32, []>(1)];
            tensor<fp16, [4096, 1024, 1, 1]> blocks_3_mlp_0_weight_to_fp16 = const()[name = tensor<string, []>("blocks_3_mlp_0_weight_to_fp16"), val = tensor<fp16, [4096, 1024, 1, 1]>(BLOBFILE(path = tensor<string, []>("@model_path/weights/weight.bin"), offset = tensor<uint64, []>(93837184)))];
            tensor<fp16, [4096]> blocks_3_mlp_0_bias_to_fp16 = const()[name = tensor<string, []>("blocks_3_mlp_0_bias_to_fp16"), val = tensor<fp16, [4096]>(BLOBFILE(path = tensor<string, []>("@model_path/weights/weight.bin"), offset = tensor<uint64, []>(102225856)))];
            tensor<fp16, [1, 4096, 1, 1500]> input_39_cast_fp16 = conv(bias = blocks_3_mlp_0_bias_to_fp16, dilations = input_39_dilations_0, groups = input_39_groups_0, pad = input_39_pad_0, pad_type = input_39_pad_type_0, strides = input_39_strides_0, weight = blocks_3_mlp_0_weight_to_fp16, x = input_37_cast_fp16)[name = tensor<string, []>("input_39_cast_fp16")];
            tensor<string, []> input_41_mode_0 = const()[name = tensor<string, []>("input_41_mode_0"), val = tensor<string, []>("EXACT")];
            tensor<fp16, [1, 4096, 1, 1500]> input_41_cast_fp16 = gelu(mode = input_41_mode_0, x = input_39_cast_fp16)[name = tensor<string, []>("input_41_cast_fp16")];
            tensor<string, []> var_1047_pad_type_0 = const()[name = tensor<string, []>("op_1047_pad_type_0"), val = tensor<string, []>("valid")];
            tensor<int32, [2]> var_1047_strides_0 = const()[name = tensor<string, []>("op_1047_strides_0"), val = tensor<int32, [2]>([1, 1])];
            tensor<int32, [4]> var_1047_pad_0 = const()[name = tensor<string, []>("op_1047_pad_0"), val = tensor<int32, [4]>([0, 0, 0, 0])];
            tensor<int32, [2]> var_1047_dilations_0 = const()[name = tensor<string, []>("op_1047_dilations_0"), val = tensor<int32, [2]>([1, 1])];
            tensor<int32, []> var_1047_groups_0 = const()[name = tensor<string, []>("op_1047_groups_0"), val = tensor<int32, []>(1)];
            tensor<fp16, [1024, 4096, 1, 1]> blocks_3_mlp_2_weight_to_fp16 = const()[name = tensor<string, []>("blocks_3_mlp_2_weight_to_fp16"), val = tensor<fp16, [1024, 4096, 1, 1]>(BLOBFILE(path = tensor<string, []>("@model_path/weights/weight.bin"), offset = tensor<uint64, []>(102234112)))];
            tensor<fp16, [1024]> blocks_3_mlp_2_bias_to_fp16 = const()[name = tensor<string, []>("blocks_3_mlp_2_bias_to_fp16"), val = tensor<fp16, [1024]>(BLOBFILE(path = tensor<string, []>("@model_path/weights/weight.bin"), offset = tensor<uint64, []>(110622784)))];
            tensor<fp16, [1, 1024, 1, 1500]> var_1047_cast_fp16 = conv(bias = blocks_3_mlp_2_bias_to_fp16, dilations = var_1047_dilations_0, groups = var_1047_groups_0, pad = var_1047_pad_0, pad_type = var_1047_pad_type_0, strides = var_1047_strides_0, weight = blocks_3_mlp_2_weight_to_fp16, x = input_41_cast_fp16)[name = tensor<string, []>("op_1047_cast_fp16")];
            tensor<fp16, [1, 1024, 1, 1500]> inputs_17_cast_fp16 = add(x = inputs_15_cast_fp16, y = var_1047_cast_fp16)[name = tensor<string, []>("inputs_17_cast_fp16")];
            tensor<int32, []> var_1056 = const()[name = tensor<string, []>("op_1056"), val = tensor<int32, []>(1)];
            tensor<int32, [1]> input_43_axes_0 = const()[name = tensor<string, []>("input_43_axes_0"), val = tensor<int32, [1]>([1])];
            tensor<fp16, [1024]> input_43_gamma_0_to_fp16 = const()[name = tensor<string, []>("input_43_gamma_0_to_fp16"), val = tensor<fp16, [1024]>(BLOBFILE(path = tensor<string, []>("@model_path/weights/weight.bin"), offset = tensor<uint64, []>(110624896)))];
            tensor<fp16, [1024]> input_43_beta_0_to_fp16 = const()[name = tensor<string, []>("input_43_beta_0_to_fp16"), val = tensor<fp16, [1024]>(BLOBFILE(path = tensor<string, []>("@model_path/weights/weight.bin"), offset = tensor<uint64, []>(110627008)))];
            tensor<fp16, []> var_1072_to_fp16 = const()[name = tensor<string, []>("op_1072_to_fp16"), val = tensor<fp16, []>(0x1.5p-17)];
            tensor<fp16, [1, 1024, 1, 1500]> input_43_cast_fp16 = layer_norm(axes = input_43_axes_0, beta = input_43_beta_0_to_fp16, epsilon = var_1072_to_fp16, gamma = input_43_gamma_0_to_fp16, x = inputs_17_cast_fp16)[name = tensor<string, []>("input_43_cast_fp16")];
            tensor<string, []> q_9_pad_type_0 = const()[name = tensor<string, []>("q_9_pad_type_0"), val = tensor<string, []>("valid")];
            tensor<int32, [2]> q_9_strides_0 = const()[name = tensor<string, []>("q_9_strides_0"), val = tensor<int32, [2]>([1, 1])];
            tensor<int32, [4]> q_9_pad_0 = const()[name = tensor<string, []>("q_9_pad_0"), val = tensor<int32, [4]>([0, 0, 0, 0])];
            tensor<int32, [2]> q_9_dilations_0 = const()[name = tensor<string, []>("q_9_dilations_0"), val = tensor<int32, [2]>([1, 1])];
            tensor<int32, []> q_9_groups_0 = const()[name = tensor<string, []>("q_9_groups_0"), val = tensor<int32, []>(1)];
            tensor<fp16, [1024, 1024, 1, 1]> var_1107_weight_0_to_fp16 = const()[name = tensor<string, []>("op_1107_weight_0_to_fp16"), val = tensor<fp16, [1024, 1024, 1, 1]>(BLOBFILE(path = tensor<string, []>("@model_path/weights/weight.bin"), offset = tensor<uint64, []>(110629120)))];
            tensor<fp16, [1024]> var_1107_bias_0_to_fp16 = const()[name = tensor<string, []>("op_1107_bias_0_to_fp16"), val = tensor<fp16, [1024]>(BLOBFILE(path = tensor<string, []>("@model_path/weights/weight.bin"), offset = tensor<uint64, []>(112726336)))];
            tensor<fp16, [1, 1024, 1, 1500]> var_1107_cast_fp16 = conv(bias = var_1107_bias_0_to_fp16, dilations = q_9_dilations_0, groups = q_9_groups_0, pad = q_9_pad_0, pad_type = q_9_pad_type_0, strides = q_9_strides_0, weight = var_1107_weight_0_to_fp16, x = input_43_cast_fp16)[name = tensor<string, []>("op_1107_cast_fp16")];
            tensor<string, []> k_9_pad_type_0 = const()[name = tensor<string, []>("k_9_pad_type_0"), val = tensor<string, []>("valid")];
            tensor<int32, [2]> k_9_strides_0 = const()[name = tensor<string, []>("k_9_strides_0"), val = tensor<int32, [2]>([1, 1])];
            tensor<int32, [4]> k_9_pad_0 = const()[name = tensor<string, []>("k_9_pad_0"), val = tensor<int32, [4]>([0, 0, 0, 0])];
            tensor<int32, [2]> k_9_dilations_0 = const()[name = tensor<string, []>("k_9_dilations_0"), val = tensor<int32, [2]>([1, 1])];
            tensor<int32, []> k_9_groups_0 = const()[name = tensor<string, []>("k_9_groups_0"), val = tensor<int32, []>(1)];
            tensor<fp16, [1024, 1024, 1, 1]> blocks_4_attn_key_weight_to_fp16 = const()[name = tensor<string, []>("blocks_4_attn_key_weight_to_fp16"), val = tensor<fp16, [1024, 1024, 1, 1]>(BLOBFILE(path = tensor<string, []>("@model_path/weights/weight.bin"), offset = tensor<uint64, []>(112728448)))];
            tensor<fp16, [1, 1024, 1, 1500]> k_9_cast_fp16 = conv(dilations = k_9_dilations_0, groups = k_9_groups_0, pad = k_9_pad_0, pad_type = k_9_pad_type_0, strides = k_9_strides_0, weight = blocks_4_attn_key_weight_to_fp16, x = input_43_cast_fp16)[name = tensor<string, []>("k_9_cast_fp16")];
            tensor<string, []> var_1105_pad_type_0 = const()[name = tensor<string, []>("op_1105_pad_type_0"), val = tensor<string, []>("valid")];
            tensor<int32, [2]> var_1105_strides_0 = const()[name = tensor<string, []>("op_1105_strides_0"), val = tensor<int32, [2]>([1, 1])];
            tensor<int32, [4]> var_1105_pad_0 = const()[name = tensor<string, []>("op_1105_pad_0"), val = tensor<int32, [4]>([0, 0, 0, 0])];
            tensor<int32, [2]> var_1105_dilations_0 = const()[name = tensor<string, []>("op_1105_dilations_0"), val = tensor<int32, [2]>([1, 1])];
            tensor<int32, []> var_1105_groups_0 = const()[name = tensor<string, []>("op_1105_groups_0"), val = tensor<int32, []>(1)];
            tensor<fp16, [1024, 1024, 1, 1]> blocks_4_attn_value_weight_to_fp16 = const()[name = tensor<string, []>("blocks_4_attn_value_weight_to_fp16"), val = tensor<fp16, [1024, 1024, 1, 1]>(BLOBFILE(path = tensor<string, []>("@model_path/weights/weight.bin"), offset = tensor<uint64, []>(114825664)))];
            tensor<fp16, [1024]> blocks_4_attn_value_bias_to_fp16 = const()[name = tensor<string, []>("blocks_4_attn_value_bias_to_fp16"), val = tensor<fp16, [1024]>(BLOBFILE(path = tensor<string, []>("@model_path/weights/weight.bin"), offset = tensor<uint64, []>(116922880)))];
            tensor<fp16, [1, 1024, 1, 1500]> var_1105_cast_fp16 = conv(bias = blocks_4_attn_value_bias_to_fp16, dilations = var_1105_dilations_0, groups = var_1105_groups_0, pad = var_1105_pad_0, pad_type = var_1105_pad_type_0, strides = var_1105_strides_0, weight = blocks_4_attn_value_weight_to_fp16, x = input_43_cast_fp16)[name = tensor<string, []>("op_1105_cast_fp16")];
            tensor<int32, [16]> tile_12 = const()[name = tensor<string, []>("tile_12"), val = tensor<int32, [16]>([64, 64, 64, 64, 64, 64, 64, 64, 64, 64, 64, 64, 64, 64, 64, 64])];
            tensor<int32, []> var_1108_axis_0 = const()[name = tensor<string, []>("op_1108_axis_0"), val = tensor<int32, []>(1)];
            tensor<fp16, [1, 64, 1, 1500]> var_1108_cast_fp16_0, tensor<fp16, [1, 64, 1, 1500]> var_1108_cast_fp16_1, tensor<fp16, [1, 64, 1, 1500]> var_1108_cast_fp16_2, tensor<fp16, [1, 64, 1, 1500]> var_1108_cast_fp16_3, tensor<fp16, [1, 64, 1, 1500]> var_1108_cast_fp16_4, tensor<fp16, [1, 64, 1, 1500]> var_1108_cast_fp16_5, tensor<fp16, [1, 64, 1, 1500]> var_1108_cast_fp16_6, tensor<fp16, [1, 64, 1, 1500]> var_1108_cast_fp16_7, tensor<fp16, [1, 64, 1, 1500]> var_1108_cast_fp16_8, tensor<fp16, [1, 64, 1, 1500]> var_1108_cast_fp16_9, tensor<fp16, [1, 64, 1, 1500]> var_1108_cast_fp16_10, tensor<fp16, [1, 64, 1, 1500]> var_1108_cast_fp16_11, tensor<fp16, [1, 64, 1, 1500]> var_1108_cast_fp16_12, tensor<fp16, [1, 64, 1, 1500]> var_1108_cast_fp16_13, tensor<fp16, [1, 64, 1, 1500]> var_1108_cast_fp16_14, tensor<fp16, [1, 64, 1, 1500]> var_1108_cast_fp16_15 = split(axis = var_1108_axis_0, split_sizes = tile_12, x = var_1107_cast_fp16)[name = tensor<string, []>("op_1108_cast_fp16")];
            tensor<int32, [4]> var_1125_perm_0 = const()[name = tensor<string, []>("op_1125_perm_0"), val = tensor<int32, [4]>([0, 3, 2, 1])];
            tensor<int32, [16]> tile_13 = const()[name = tensor<string, []>("tile_13"), val = tensor<int32, [16]>([64, 64, 64, 64, 64, 64, 64, 64, 64, 64, 64, 64, 64, 64, 64, 64])];
            tensor<int32, []> var_1126_axis_0 = const()[name = tensor<string, []>("op_1126_axis_0"), val = tensor<int32, []>(3)];
            tensor<fp16, [1, 1500, 1, 1024]> var_1125_cast_fp16 = transpose(perm = var_1125_perm_0, x = k_9_cast_fp16)[name = tensor<string, []>("transpose_20")];
            tensor<fp16, [1, 1500, 1, 64]> var_1126_cast_fp16_0, tensor<fp16, [1, 1500, 1, 64]> var_1126_cast_fp16_1, tensor<fp16, [1, 1500, 1, 64]> var_1126_cast_fp16_2, tensor<fp16, [1, 1500, 1, 64]> var_1126_cast_fp16_3, tensor<fp16, [1, 1500, 1, 64]> var_1126_cast_fp16_4, tensor<fp16, [1, 1500, 1, 64]> var_1126_cast_fp16_5, tensor<fp16, [1, 1500, 1, 64]> var_1126_cast_fp16_6, tensor<fp16, [1, 1500, 1, 64]> var_1126_cast_fp16_7, tensor<fp16, [1, 1500, 1, 64]> var_1126_cast_fp16_8, tensor<fp16, [1, 1500, 1, 64]> var_1126_cast_fp16_9, tensor<fp16, [1, 1500, 1, 64]> var_1126_cast_fp16_10, tensor<fp16, [1, 1500, 1, 64]> var_1126_cast_fp16_11, tensor<fp16, [1, 1500, 1, 64]> var_1126_cast_fp16_12, tensor<fp16, [1, 1500, 1, 64]> var_1126_cast_fp16_13, tensor<fp16, [1, 1500, 1, 64]> var_1126_cast_fp16_14, tensor<fp16, [1, 1500, 1, 64]> var_1126_cast_fp16_15 = split(axis = var_1126_axis_0, split_sizes = tile_13, x = var_1125_cast_fp16)[name = tensor<string, []>("op_1126_cast_fp16")];
            tensor<int32, [16]> tile_14 = const()[name = tensor<string, []>("tile_14"), val = tensor<int32, [16]>([64, 64, 64, 64, 64, 64, 64, 64, 64, 64, 64, 64, 64, 64, 64, 64])];
            tensor<int32, []> var_1143_axis_0 = const()[name = tensor<string, []>("op_1143_axis_0"), val = tensor<int32, []>(1)];
            tensor<fp16, [1, 64, 1, 1500]> var_1143_cast_fp16_0, tensor<fp16, [1, 64, 1, 1500]> var_1143_cast_fp16_1, tensor<fp16, [1, 64, 1, 1500]> var_1143_cast_fp16_2, tensor<fp16, [1, 64, 1, 1500]> var_1143_cast_fp16_3, tensor<fp16, [1, 64, 1, 1500]> var_1143_cast_fp16_4, tensor<fp16, [1, 64, 1, 1500]> var_1143_cast_fp16_5, tensor<fp16, [1, 64, 1, 1500]> var_1143_cast_fp16_6, tensor<fp16, [1, 64, 1, 1500]> var_1143_cast_fp16_7, tensor<fp16, [1, 64, 1, 1500]> var_1143_cast_fp16_8, tensor<fp16, [1, 64, 1, 1500]> var_1143_cast_fp16_9, tensor<fp16, [1, 64, 1, 1500]> var_1143_cast_fp16_10, tensor<fp16, [1, 64, 1, 1500]> var_1143_cast_fp16_11, tensor<fp16, [1, 64, 1, 1500]> var_1143_cast_fp16_12, tensor<fp16, [1, 64, 1, 1500]> var_1143_cast_fp16_13, tensor<fp16, [1, 64, 1, 1500]> var_1143_cast_fp16_14, tensor<fp16, [1, 64, 1, 1500]> var_1143_cast_fp16_15 = split(axis = var_1143_axis_0, split_sizes = tile_14, x = var_1105_cast_fp16)[name = tensor<string, []>("op_1143_cast_fp16")];
            tensor<string, []> aw_129_equation_0 = const()[name = tensor<string, []>("aw_129_equation_0"), val = tensor<string, []>("bkhc,bchq->bkhq")];
            tensor<fp16, [1, 1500, 1, 1500]> aw_129_cast_fp16 = einsum(equation = aw_129_equation_0, values = (var_1126_cast_fp16_0, var_1108_cast_fp16_0))[name = tensor<string, []>("aw_129_cast_fp16")];
            tensor<string, []> aw_131_equation_0 = const()[name = tensor<string, []>("aw_131_equation_0"), val = tensor<string, []>("bkhc,bchq->bkhq")];
            tensor<fp16, [1, 1500, 1, 1500]> aw_131_cast_fp16 = einsum(equation = aw_131_equation_0, values = (var_1126_cast_fp16_1, var_1108_cast_fp16_1))[name = tensor<string, []>("aw_131_cast_fp16")];
            tensor<string, []> aw_133_equation_0 = const()[name = tensor<string, []>("aw_133_equation_0"), val = tensor<string, []>("bkhc,bchq->bkhq")];
            tensor<fp16, [1, 1500, 1, 1500]> aw_133_cast_fp16 = einsum(equation = aw_133_equation_0, values = (var_1126_cast_fp16_2, var_1108_cast_fp16_2))[name = tensor<string, []>("aw_133_cast_fp16")];
            tensor<string, []> aw_135_equation_0 = const()[name = tensor<string, []>("aw_135_equation_0"), val = tensor<string, []>("bkhc,bchq->bkhq")];
            tensor<fp16, [1, 1500, 1, 1500]> aw_135_cast_fp16 = einsum(equation = aw_135_equation_0, values = (var_1126_cast_fp16_3, var_1108_cast_fp16_3))[name = tensor<string, []>("aw_135_cast_fp16")];
            tensor<string, []> aw_137_equation_0 = const()[name = tensor<string, []>("aw_137_equation_0"), val = tensor<string, []>("bkhc,bchq->bkhq")];
            tensor<fp16, [1, 1500, 1, 1500]> aw_137_cast_fp16 = einsum(equation = aw_137_equation_0, values = (var_1126_cast_fp16_4, var_1108_cast_fp16_4))[name = tensor<string, []>("aw_137_cast_fp16")];
            tensor<string, []> aw_139_equation_0 = const()[name = tensor<string, []>("aw_139_equation_0"), val = tensor<string, []>("bkhc,bchq->bkhq")];
            tensor<fp16, [1, 1500, 1, 1500]> aw_139_cast_fp16 = einsum(equation = aw_139_equation_0, values = (var_1126_cast_fp16_5, var_1108_cast_fp16_5))[name = tensor<string, []>("aw_139_cast_fp16")];
            tensor<string, []> aw_141_equation_0 = const()[name = tensor<string, []>("aw_141_equation_0"), val = tensor<string, []>("bkhc,bchq->bkhq")];
            tensor<fp16, [1, 1500, 1, 1500]> aw_141_cast_fp16 = einsum(equation = aw_141_equation_0, values = (var_1126_cast_fp16_6, var_1108_cast_fp16_6))[name = tensor<string, []>("aw_141_cast_fp16")];
            tensor<string, []> aw_143_equation_0 = const()[name = tensor<string, []>("aw_143_equation_0"), val = tensor<string, []>("bkhc,bchq->bkhq")];
            tensor<fp16, [1, 1500, 1, 1500]> aw_143_cast_fp16 = einsum(equation = aw_143_equation_0, values = (var_1126_cast_fp16_7, var_1108_cast_fp16_7))[name = tensor<string, []>("aw_143_cast_fp16")];
            tensor<string, []> aw_145_equation_0 = const()[name = tensor<string, []>("aw_145_equation_0"), val = tensor<string, []>("bkhc,bchq->bkhq")];
            tensor<fp16, [1, 1500, 1, 1500]> aw_145_cast_fp16 = einsum(equation = aw_145_equation_0, values = (var_1126_cast_fp16_8, var_1108_cast_fp16_8))[name = tensor<string, []>("aw_145_cast_fp16")];
            tensor<string, []> aw_147_equation_0 = const()[name = tensor<string, []>("aw_147_equation_0"), val = tensor<string, []>("bkhc,bchq->bkhq")];
            tensor<fp16, [1, 1500, 1, 1500]> aw_147_cast_fp16 = einsum(equation = aw_147_equation_0, values = (var_1126_cast_fp16_9, var_1108_cast_fp16_9))[name = tensor<string, []>("aw_147_cast_fp16")];
            tensor<string, []> aw_149_equation_0 = const()[name = tensor<string, []>("aw_149_equation_0"), val = tensor<string, []>("bkhc,bchq->bkhq")];
            tensor<fp16, [1, 1500, 1, 1500]> aw_149_cast_fp16 = einsum(equation = aw_149_equation_0, values = (var_1126_cast_fp16_10, var_1108_cast_fp16_10))[name = tensor<string, []>("aw_149_cast_fp16")];
            tensor<string, []> aw_151_equation_0 = const()[name = tensor<string, []>("aw_151_equation_0"), val = tensor<string, []>("bkhc,bchq->bkhq")];
            tensor<fp16, [1, 1500, 1, 1500]> aw_151_cast_fp16 = einsum(equation = aw_151_equation_0, values = (var_1126_cast_fp16_11, var_1108_cast_fp16_11))[name = tensor<string, []>("aw_151_cast_fp16")];
            tensor<string, []> aw_153_equation_0 = const()[name = tensor<string, []>("aw_153_equation_0"), val = tensor<string, []>("bkhc,bchq->bkhq")];
            tensor<fp16, [1, 1500, 1, 1500]> aw_153_cast_fp16 = einsum(equation = aw_153_equation_0, values = (var_1126_cast_fp16_12, var_1108_cast_fp16_12))[name = tensor<string, []>("aw_153_cast_fp16")];
            tensor<string, []> aw_155_equation_0 = const()[name = tensor<string, []>("aw_155_equation_0"), val = tensor<string, []>("bkhc,bchq->bkhq")];
            tensor<fp16, [1, 1500, 1, 1500]> aw_155_cast_fp16 = einsum(equation = aw_155_equation_0, values = (var_1126_cast_fp16_13, var_1108_cast_fp16_13))[name = tensor<string, []>("aw_155_cast_fp16")];
            tensor<string, []> aw_157_equation_0 = const()[name = tensor<string, []>("aw_157_equation_0"), val = tensor<string, []>("bkhc,bchq->bkhq")];
            tensor<fp16, [1, 1500, 1, 1500]> aw_157_cast_fp16 = einsum(equation = aw_157_equation_0, values = (var_1126_cast_fp16_14, var_1108_cast_fp16_14))[name = tensor<string, []>("aw_157_cast_fp16")];
            tensor<string, []> aw_159_equation_0 = const()[name = tensor<string, []>("aw_159_equation_0"), val = tensor<string, []>("bkhc,bchq->bkhq")];
            tensor<fp16, [1, 1500, 1, 1500]> aw_159_cast_fp16 = einsum(equation = aw_159_equation_0, values = (var_1126_cast_fp16_15, var_1108_cast_fp16_15))[name = tensor<string, []>("aw_159_cast_fp16")];
            tensor<fp16, [1, 1500, 1, 1500]> var_1192_cast_fp16 = softmax(axis = var_1056, x = aw_129_cast_fp16)[name = tensor<string, []>("op_1192_cast_fp16")];
            tensor<fp16, [1, 1500, 1, 1500]> var_1193_cast_fp16 = softmax(axis = var_1056, x = aw_131_cast_fp16)[name = tensor<string, []>("op_1193_cast_fp16")];
            tensor<fp16, [1, 1500, 1, 1500]> var_1194_cast_fp16 = softmax(axis = var_1056, x = aw_133_cast_fp16)[name = tensor<string, []>("op_1194_cast_fp16")];
            tensor<fp16, [1, 1500, 1, 1500]> var_1195_cast_fp16 = softmax(axis = var_1056, x = aw_135_cast_fp16)[name = tensor<string, []>("op_1195_cast_fp16")];
            tensor<fp16, [1, 1500, 1, 1500]> var_1196_cast_fp16 = softmax(axis = var_1056, x = aw_137_cast_fp16)[name = tensor<string, []>("op_1196_cast_fp16")];
            tensor<fp16, [1, 1500, 1, 1500]> var_1197_cast_fp16 = softmax(axis = var_1056, x = aw_139_cast_fp16)[name = tensor<string, []>("op_1197_cast_fp16")];
            tensor<fp16, [1, 1500, 1, 1500]> var_1198_cast_fp16 = softmax(axis = var_1056, x = aw_141_cast_fp16)[name = tensor<string, []>("op_1198_cast_fp16")];
            tensor<fp16, [1, 1500, 1, 1500]> var_1199_cast_fp16 = softmax(axis = var_1056, x = aw_143_cast_fp16)[name = tensor<string, []>("op_1199_cast_fp16")];
            tensor<fp16, [1, 1500, 1, 1500]> var_1200_cast_fp16 = softmax(axis = var_1056, x = aw_145_cast_fp16)[name = tensor<string, []>("op_1200_cast_fp16")];
            tensor<fp16, [1, 1500, 1, 1500]> var_1201_cast_fp16 = softmax(axis = var_1056, x = aw_147_cast_fp16)[name = tensor<string, []>("op_1201_cast_fp16")];
            tensor<fp16, [1, 1500, 1, 1500]> var_1202_cast_fp16 = softmax(axis = var_1056, x = aw_149_cast_fp16)[name = tensor<string, []>("op_1202_cast_fp16")];
            tensor<fp16, [1, 1500, 1, 1500]> var_1203_cast_fp16 = softmax(axis = var_1056, x = aw_151_cast_fp16)[name = tensor<string, []>("op_1203_cast_fp16")];
            tensor<fp16, [1, 1500, 1, 1500]> var_1204_cast_fp16 = softmax(axis = var_1056, x = aw_153_cast_fp16)[name = tensor<string, []>("op_1204_cast_fp16")];
            tensor<fp16, [1, 1500, 1, 1500]> var_1205_cast_fp16 = softmax(axis = var_1056, x = aw_155_cast_fp16)[name = tensor<string, []>("op_1205_cast_fp16")];
            tensor<fp16, [1, 1500, 1, 1500]> var_1206_cast_fp16 = softmax(axis = var_1056, x = aw_157_cast_fp16)[name = tensor<string, []>("op_1206_cast_fp16")];
            tensor<fp16, [1, 1500, 1, 1500]> var_1207_cast_fp16 = softmax(axis = var_1056, x = aw_159_cast_fp16)[name = tensor<string, []>("op_1207_cast_fp16")];
            tensor<string, []> var_1209_equation_0 = const()[name = tensor<string, []>("op_1209_equation_0"), val = tensor<string, []>("bchk,bkhq->bchq")];
            tensor<fp16, [1, 64, 1, 1500]> var_1209_cast_fp16 = einsum(equation = var_1209_equation_0, values = (var_1143_cast_fp16_0, var_1192_cast_fp16))[name = tensor<string, []>("op_1209_cast_fp16")];
            tensor<string, []> var_1211_equation_0 = const()[name = tensor<string, []>("op_1211_equation_0"), val = tensor<string, []>("bchk,bkhq->bchq")];
            tensor<fp16, [1, 64, 1, 1500]> var_1211_cast_fp16 = einsum(equation = var_1211_equation_0, values = (var_1143_cast_fp16_1, var_1193_cast_fp16))[name = tensor<string, []>("op_1211_cast_fp16")];
            tensor<string, []> var_1213_equation_0 = const()[name = tensor<string, []>("op_1213_equation_0"), val = tensor<string, []>("bchk,bkhq->bchq")];
            tensor<fp16, [1, 64, 1, 1500]> var_1213_cast_fp16 = einsum(equation = var_1213_equation_0, values = (var_1143_cast_fp16_2, var_1194_cast_fp16))[name = tensor<string, []>("op_1213_cast_fp16")];
            tensor<string, []> var_1215_equation_0 = const()[name = tensor<string, []>("op_1215_equation_0"), val = tensor<string, []>("bchk,bkhq->bchq")];
            tensor<fp16, [1, 64, 1, 1500]> var_1215_cast_fp16 = einsum(equation = var_1215_equation_0, values = (var_1143_cast_fp16_3, var_1195_cast_fp16))[name = tensor<string, []>("op_1215_cast_fp16")];
            tensor<string, []> var_1217_equation_0 = const()[name = tensor<string, []>("op_1217_equation_0"), val = tensor<string, []>("bchk,bkhq->bchq")];
            tensor<fp16, [1, 64, 1, 1500]> var_1217_cast_fp16 = einsum(equation = var_1217_equation_0, values = (var_1143_cast_fp16_4, var_1196_cast_fp16))[name = tensor<string, []>("op_1217_cast_fp16")];
            tensor<string, []> var_1219_equation_0 = const()[name = tensor<string, []>("op_1219_equation_0"), val = tensor<string, []>("bchk,bkhq->bchq")];
            tensor<fp16, [1, 64, 1, 1500]> var_1219_cast_fp16 = einsum(equation = var_1219_equation_0, values = (var_1143_cast_fp16_5, var_1197_cast_fp16))[name = tensor<string, []>("op_1219_cast_fp16")];
            tensor<string, []> var_1221_equation_0 = const()[name = tensor<string, []>("op_1221_equation_0"), val = tensor<string, []>("bchk,bkhq->bchq")];
            tensor<fp16, [1, 64, 1, 1500]> var_1221_cast_fp16 = einsum(equation = var_1221_equation_0, values = (var_1143_cast_fp16_6, var_1198_cast_fp16))[name = tensor<string, []>("op_1221_cast_fp16")];
            tensor<string, []> var_1223_equation_0 = const()[name = tensor<string, []>("op_1223_equation_0"), val = tensor<string, []>("bchk,bkhq->bchq")];
            tensor<fp16, [1, 64, 1, 1500]> var_1223_cast_fp16 = einsum(equation = var_1223_equation_0, values = (var_1143_cast_fp16_7, var_1199_cast_fp16))[name = tensor<string, []>("op_1223_cast_fp16")];
            tensor<string, []> var_1225_equation_0 = const()[name = tensor<string, []>("op_1225_equation_0"), val = tensor<string, []>("bchk,bkhq->bchq")];
            tensor<fp16, [1, 64, 1, 1500]> var_1225_cast_fp16 = einsum(equation = var_1225_equation_0, values = (var_1143_cast_fp16_8, var_1200_cast_fp16))[name = tensor<string, []>("op_1225_cast_fp16")];
            tensor<string, []> var_1227_equation_0 = const()[name = tensor<string, []>("op_1227_equation_0"), val = tensor<string, []>("bchk,bkhq->bchq")];
…
            tensor<string, []> aw_731_equation_0 = const()[name = tensor<string, []>("aw_731_equation_0"), val = tensor<string, []>("bkhc,bchq->bkhq")];
            tensor<fp16, [1, 1500, 1, 1500]> aw_731_cast_fp16 = einsum(equation = aw_731_equation_0, values = (var_5392_cast_fp16_13, var_5374_cast_fp16_13))[name = tensor<string, []>("aw_731_cast_fp16")];
            tensor<string, []> aw_733_equation_0 = const()[name = tensor<string, []>("aw_733_equation_0"), val = tensor<string, []>("bkhc,bchq->bkhq")];
            tensor<fp16, [1, 1500, 1, 1500]> aw_733_cast_fp16 = einsum(equation = aw_733_equation_0, values = (var_5392_cast_fp16_14, var_5374_cast_fp16_14))[name = tensor<string, []>("aw_733_cast_fp16")];
            tensor<string, []> aw_735_equation_0 = const()[name = tensor<string, []>("aw_735_equation_0"), val = tensor<string, []>("bkhc,bchq->bkhq")];
            tensor<fp16, [1, 1500, 1, 1500]> aw_735_cast_fp16 = einsum(equation = aw_735_equation_0, values = (var_5392_cast_fp16_15, var_5374_cast_fp16_15))[name = tensor<string, []>("aw_735_cast_fp16")];
            tensor<fp16, [1, 1500, 1, 1500]> var_5458_cast_fp16 = softmax(axis = var_5322, x = aw_705_cast_fp16)[name = tensor<string, []>("op_5458_cast_fp16")];
            tensor<fp16, [1, 1500, 1, 1500]> var_5459_cast_fp16 = softmax(axis = var_5322, x = aw_707_cast_fp16)[name = tensor<string, []>("op_5459_cast_fp16")];
            tensor<fp16, [1, 1500, 1, 1500]> var_5460_cast_fp16 = softmax(axis = var_5322, x = aw_709_cast_fp16)[name = tensor<string, []>("op_5460_cast_fp16")];
            tensor<fp16, [1, 1500, 1, 1500]> var_5461_cast_fp16 = softmax(axis = var_5322, x = aw_711_cast_fp16)[name = tensor<string, []>("op_5461_cast_fp16")];
            tensor<fp16, [1, 1500, 1, 1500]> var_5462_cast_fp16 = softmax(axis = var_5322, x = aw_713_cast_fp16)[name = tensor<string, []>("op_5462_cast_fp16")];
            tensor<fp16, [1, 1500, 1, 1500]> var_5463_cast_fp16 = softmax(axis = var_5322, x = aw_715_cast_fp16)[name = tensor<string, []>("op_5463_cast_fp16")];
            tensor<fp16, [1, 1500, 1, 1500]> var_5464_cast_fp16 = softmax(axis = var_5322, x = aw_717_cast_fp16)[name = tensor<string, []>("op_5464_cast_fp16")];
            tensor<fp16, [1, 1500, 1, 1500]> var_5465_cast_fp16 = softmax(axis = var_5322, x = aw_719_cast_fp16)[name = tensor<string, []>("op_5465_cast_fp16")];
            tensor<fp16, [1, 1500, 1, 1500]> var_5466_cast_fp16 = softmax(axis = var_5322, x = aw_721_cast_fp16)[name = tensor<string, []>("op_5466_cast_fp16")];
            tensor<fp16, [1, 1500, 1, 1500]> var_5467_cast_fp16 = softmax(axis = var_5322, x = aw_723_cast_fp16)[name = tensor<string, []>("op_5467_cast_fp16")];
            tensor<fp16, [1, 1500, 1, 1500]> var_5468_cast_fp16 = softmax(axis = var_5322, x = aw_725_cast_fp16)[name = tensor<string, []>("op_5468_cast_fp16")];
            tensor<fp16, [1, 1500, 1, 1500]> var_5469_cast_fp16 = softmax(axis = var_5322, x = aw_727_cast_fp16)[name = tensor<string, []>("op_5469_cast_fp16")];
            tensor<fp16, [1, 1500, 1, 1500]> var_5470_cast_fp16 = softmax(axis = var_5322, x = aw_729_cast_fp16)[name = tensor<string, []>("op_5470_cast_fp16")];
            tensor<fp16, [1, 1500, 1, 1500]> var_5471_cast_fp16 = softmax(axis = var_5322, x = aw_731_cast_fp16)[name = tensor<string, []>("op_5471_cast_fp16")];
            tensor<fp16, [1, 1500, 1, 1500]> var_5472_cast_fp16 = softmax(axis = var_5322, x = aw_733_cast_fp16)[name = tensor<string, []>("op_5472_cast_fp16")];
            tensor<fp16, [1, 1500, 1, 1500]> var_5473_cast_fp16 = softmax(axis = var_5322, x = aw_735_cast_fp16)[name = tensor<string, []>("op_5473_cast_fp16")];
            tensor<string, []> var_5475_equation_0 = const()[name = tensor<string, []>("op_5475_equation_0"), val = tensor<string, []>("bchk,bkhq->bchq")];
            tensor<fp16, [1, 64, 1, 1500]> var_5475_cast_fp16 = einsum(equation = var_5475_equation_0, values = (var_5409_cast_fp16_0, var_5458_cast_fp16))[name = tensor<string, []>("op_5475_cast_fp16")];
            tensor<string, []> var_5477_equation_0 = const()[name = tensor<string, []>("op_5477_equation_0"), val = tensor<string, []>("bchk,bkhq->bchq")];
            tensor<fp16, [1, 64, 1, 1500]> var_5477_cast_fp16 = einsum(equation = var_5477_equation_0, values = (var_5409_cast_fp16_1, var_5459_cast_fp16))[name = tensor<string, []>("op_5477_cast_fp16")];
            tensor<string, []> var_5479_equation_0 = const()[name = tensor<string, []>("op_5479_equation_0"), val = tensor<string, []>("bchk,bkhq->bchq")];
            tensor<fp16, [1, 64, 1, 1500]> var_5479_cast_fp16 = einsum(equation = var_5479_equation_0, values = (var_5409_cast_fp16_2, var_5460_cast_fp16))[name = tensor<string, []>("op_5479_cast_fp16")];
            tensor<string, []> var_5481_equation_0 = const()[name = tensor<string, []>("op_5481_equation_0"), val = tensor<string, []>("bchk,bkhq->bchq")];
            tensor<fp16, [1, 64, 1, 1500]> var_5481_cast_fp16 = einsum(equation = var_5481_equation_0, values = (var_5409_cast_fp16_3, var_5461_cast_fp16))[name = tensor<string, []>("op_5481_cast_fp16")];
            tensor<string, []> var_5483_equation_0 = const()[name = tensor<string, []>("op_5483_equation_0"), val = tensor<string, []>("bchk,bkhq->bchq")];
            tensor<fp16, [1, 64, 1, 1500]> var_5483_cast_fp16 = einsum(equation = var_5483_equation_0, values = (var_5409_cast_fp16_4, var_5462_cast_fp16))[name = tensor<string, []>("op_5483_cast_fp16")];
            tensor<string, []> var_5485_equation_0 = const()[name = tensor<string, []>("op_5485_equation_0"), val = tensor<string, []>("bchk,bkhq->bchq")];
            tensor<fp16, [1, 64, 1, 1500]> var_5485_cast_fp16 = einsum(equation = var_5485_equation_0, values = (var_5409_cast_fp16_5, var_5463_cast_fp16))[name = tensor<string, []>("op_5485_cast_fp16")];
            tensor<string, []> var_5487_equation_0 = const()[name = tensor<string, []>("op_5487_equation_0"), val = tensor<string, []>("bchk,bkhq->bchq")];
            tensor<fp16, [1, 64, 1, 1500]> var_5487_cast_fp16 = einsum(equation = var_5487_equation_0, values = (var_5409_cast_fp16_6, var_5464_cast_fp16))[name = tensor<string, []>("op_5487_cast_fp16")];
            tensor<string, []> var_5489_equation_0 = const()[name = tensor<string, []>("op_5489_equation_0"), val = tensor<string, []>("bchk,bkhq->bchq")];
            tensor<fp16, [1, 64, 1, 1500]> var_5489_cast_fp16 = einsum(equation = var_5489_equation_0, values = (var_5409_cast_fp16_7, var_5465_cast_fp16))[name = tensor<string, []>("op_5489_cast_fp16")];
            tensor<string, []> var_5491_equation_0 = const()[name = tensor<string, []>("op_5491_equation_0"), val = tensor<string, []>("bchk,bkhq->bchq")];
            tensor<fp16, [1, 64, 1, 1500]> var_5491_cast_fp16 = einsum(equation = var_5491_equation_0, values = (var_5409_cast_fp16_8, var_5466_cast_fp16))[name = tensor<string, []>("op_5491_cast_fp16")];
            tensor<string, []> var_5493_equation_0 = const()[name = tensor<string, []>("op_5493_equation_0"), val = tensor<string, []>("bchk,bkhq->bchq")];
            tensor<fp16, [1, 64, 1, 1500]> var_5493_cast_fp16 = einsum(equation = var_5493_equation_0, values = (var_5409_cast_fp16_9, var_5467_cast_fp16))[name = tensor<string, []>("op_5493_cast_fp16")];
            tensor<string, []> var_5495_equation_0 = const()[name = tensor<string, []>("op_5495_equation_0"), val = tensor<string, []>("bchk,bkhq->bchq")];
            tensor<fp16, [1, 64, 1, 1500]> var_5495_cast_fp16 = einsum(equation = var_5495_equation_0, values = (var_5409_cast_fp16_10, var_5468_cast_fp16))[name = tensor<string, []>("op_5495_cast_fp16")];
            tensor<string, []> var_5497_equation_0 = const()[name = tensor<string, []>("op_5497_equation_0"), val = tensor<string, []>("bchk,bkhq->bchq")];
            tensor<fp16, [1, 64, 1, 1500]> var_5497_cast_fp16 = einsum(equation = var_5497_equation_0, values = (var_5409_cast_fp16_11, var_5469_cast_fp16))[name = tensor<string, []>("op_5497_cast_fp16")];
            tensor<string, []> var_5499_equation_0 = const()[name = tensor<string, []>("op_5499_equation_0"), val = tensor<string, []>("bchk,bkhq->bchq")];
            tensor<fp16, [1, 64, 1, 1500]> var_5499_cast_fp16 = einsum(equation = var_5499_equation_0, values = (var_5409_cast_fp16_12, var_5470_cast_fp16))[name = tensor<string, []>("op_5499_cast_fp16")];
            tensor<string, []> var_5501_equation_0 = const()[name = tensor<string, []>("op_5501_equation_0"), val = tensor<string, []>("bchk,bkhq->bchq")];
            tensor<fp16, [1, 64, 1, 1500]> var_5501_cast_fp16 = einsum(equation = var_5501_equation_0, values = (var_5409_cast_fp16_13, var_5471_cast_fp16))[name = tensor<string, []>("op_5501_cast_fp16")];
            tensor<string, []> var_5503_equation_0 = const()[name = tensor<string, []>("op_5503_equation_0"), val = tensor<string, []>("bchk,bkhq->bchq")];
            tensor<fp16, [1, 64, 1, 1500]> var_5503_cast_fp16 = einsum(equation = var_5503_equation_0, values = (var_5409_cast_fp16_14, var_5472_cast_fp16))[name = tensor<string, []>("op_5503_cast_fp16")];
            tensor<string, []> var_5505_equation_0 = const()[name = tensor<string, []>("op_5505_equation_0"), val = tensor<string, []>("bchk,bkhq->bchq")];
            tensor<fp16, [1, 64, 1, 1500]> var_5505_cast_fp16 = einsum(equation = var_5505_equation_0, values = (var_5409_cast_fp16_15, var_5473_cast_fp16))[name = tensor<string, []>("op_5505_cast_fp16")];
            tensor<bool, []> input_225_interleave_0 = const()[name = tensor<string, []>("input_225_interleave_0"), val = tensor<bool, []>(false)];
            tensor<fp16, [1, 1024, 1, 1500]> input_225_cast_fp16 = concat(axis = var_5322, interleave = input_225_interleave_0, values = (var_5475_cast_fp16, var_5477_cast_fp16, var_5479_cast_fp16, var_5481_cast_fp16, var_5483_cast_fp16, var_5485_cast_fp16, var_5487_cast_fp16, var_5489_cast_fp16, var_5491_cast_fp16, var_5493_cast_fp16, var_5495_cast_fp16, var_5497_cast_fp16, var_5499_cast_fp16, var_5501_cast_fp16, var_5503_cast_fp16, var_5505_cast_fp16))[name = tensor<string, []>("input_225_cast_fp16")];
            tensor<string, []> var_5514_pad_type_0 = const()[name = tensor<string, []>("op_5514_pad_type_0"), val = tensor<string, []>("valid")];
            tensor<int32, [2]> var_5514_strides_0 = const()[name = tensor<string, []>("op_5514_strides_0"), val = tensor<int32, [2]>([1, 1])];
            tensor<int32, [4]> var_5514_pad_0 = const()[name = tensor<string, []>("op_5514_pad_0"), val = tensor<int32, [4]>([0, 0, 0, 0])];
            tensor<int32, [2]> var_5514_dilations_0 = const()[name = tensor<string, []>("op_5514_dilations_0"), val = tensor<int32, [2]>([1, 1])];
            tensor<int32, []> var_5514_groups_0 = const()[name = tensor<string, []>("op_5514_groups_0"), val = tensor<int32, []>(1)];
            tensor<fp16, [1024, 1024, 1, 1]> blocks_22_attn_out_weight_to_fp16 = const()[name = tensor<string, []>("blocks_22_attn_out_weight_to_fp16"), val = tensor<fp16, [1024, 1024, 1, 1]>(BLOBFILE(path = tensor<string, []>("@model_path/weights/weight.bin"), offset = tensor<uint64, []>(570369472)))];
            tensor<fp16, [1024]> blocks_22_attn_out_bias_to_fp16 = const()[name = tensor<string, []>("blocks_22_attn_out_bias_to_fp16"), val = tensor<fp16, [1024]>(BLOBFILE(path = tensor<string, []>("@model_path/weights/weight.bin"), offset = tensor<uint64, []>(572466688)))];
            tensor<fp16, [1, 1024, 1, 1500]> var_5514_cast_fp16 = conv(bias = blocks_22_attn_out_bias_to_fp16, dilations = var_5514_dilations_0, groups = var_5514_groups_0, pad = var_5514_pad_0, pad_type = var_5514_pad_type_0, strides = var_5514_strides_0, weight = blocks_22_attn_out_weight_to_fp16, x = input_225_cast_fp16)[name = tensor<string, []>("op_5514_cast_fp16")];
            tensor<fp16, [1, 1024, 1, 1500]> inputs_91_cast_fp16 = add(x = inputs_89_cast_fp16, y = var_5514_cast_fp16)[name = tensor<string, []>("inputs_91_cast_fp16")];
            tensor<int32, [1]> input_227_axes_0 = const()[name = tensor<string, []>("input_227_axes_0"), val = tensor<int32, [1]>([1])];
            tensor<fp16, [1024]> input_227_gamma_0_to_fp16 = const()[name = tensor<string, []>("input_227_gamma_0_to_fp16"), val = tensor<fp16, [1024]>(BLOBFILE(path = tensor<string, []>("@model_path/weights/weight.bin"), offset = tensor<uint64, []>(572468800)))];
            tensor<fp16, [1024]> input_227_beta_0_to_fp16 = const()[name = tensor<string, []>("input_227_beta_0_to_fp16"), val = tensor<fp16, [1024]>(BLOBFILE(path = tensor<string, []>("@model_path/weights/weight.bin"), offset = tensor<uint64, []>(572470912)))];
            tensor<fp16, []> var_5524_to_fp16 = const()[name = tensor<string, []>("op_5524_to_fp16"), val = tensor<fp16, []>(0x1.5p-17)];
            tensor<fp16, [1, 1024, 1, 1500]> input_227_cast_fp16 = layer_norm(axes = input_227_axes_0, beta = input_227_beta_0_to_fp16, epsilon = var_5524_to_fp16, gamma = input_227_gamma_0_to_fp16, x = inputs_91_cast_fp16)[name = tensor<string, []>("input_227_cast_fp16")];
            tensor<string, []> input_229_pad_type_0 = const()[name = tensor<string, []>("input_229_pad_type_0"), val = tensor<string, []>("valid")];
            tensor<int32, [2]> input_229_strides_0 = const()[name = tensor<string, []>("input_229_strides_0"), val = tensor<int32, [2]>([1, 1])];
            tensor<int32, [4]> input_229_pad_0 = const()[name = tensor<string, []>("input_229_pad_0"), val = tensor<int32, [4]>([0, 0, 0, 0])];
            tensor<int32, [2]> input_229_dilations_0 = const()[name = tensor<string, []>("input_229_dilations_0"), val = tensor<int32, [2]>([1, 1])];
            tensor<int32, []> input_229_groups_0 = const()[name = tensor<string, []>("input_229_groups_0"), val = tensor<int32, []>(1)];
            tensor<fp16, [4096, 1024, 1, 1]> blocks_22_mlp_0_weight_to_fp16 = const()[name = tensor<string, []>("blocks_22_mlp_0_weight_to_fp16"), val = tensor<fp16, [4096, 1024, 1, 1]>(BLOBFILE(path = tensor<string, []>("@model_path/weights/weight.bin"), offset = tensor<uint64, []>(572473024)))];
            tensor<fp16, [4096]> blocks_22_mlp_0_bias_to_fp16 = const()[name = tensor<string, []>("blocks_22_mlp_0_bias_to_fp16"), val = tensor<fp16, [4096]>(BLOBFILE(path = tensor<string, []>("@model_path/weights/weight.bin"), offset = tensor<uint64, []>(580861696)))];
            tensor<fp16, [1, 4096, 1, 1500]> input_229_cast_fp16 = conv(bias = blocks_22_mlp_0_bias_to_fp16, dilations = input_229_dilations_0, groups = input_229_groups_0, pad = input_229_pad_0, pad_type = input_229_pad_type_0, strides = input_229_strides_0, weight = blocks_22_mlp_0_weight_to_fp16, x = input_227_cast_fp16)[name = tensor<string, []>("input_229_cast_fp16")];
            tensor<string, []> input_231_mode_0 = const()[name = tensor<string, []>("input_231_mode_0"), val = tensor<string, []>("EXACT")];
            tensor<fp16, [1, 4096, 1, 1500]> input_231_cast_fp16 = gelu(mode = input_231_mode_0, x = input_229_cast_fp16)[name = tensor<string, []>("input_231_cast_fp16")];
            tensor<string, []> var_5550_pad_type_0 = const()[name = tensor<string, []>("op_5550_pad_type_0"), val = tensor<string, []>("valid")];
            tensor<int32, [2]> var_5550_strides_0 = const()[name = tensor<string, []>("op_5550_strides_0"), val = tensor<int32, [2]>([1, 1])];
            tensor<int32, [4]> var_5550_pad_0 = const()[name = tensor<string, []>("op_5550_pad_0"), val = tensor<int32, [4]>([0, 0, 0, 0])];
            tensor<int32, [2]> var_5550_dilations_0 = const()[name = tensor<string, []>("op_5550_dilations_0"), val = tensor<int32, [2]>([1, 1])];
            tensor<int32, []> var_5550_groups_0 = const()[name = tensor<string, []>("op_5550_groups_0"), val = tensor<int32, []>(1)];
            tensor<fp16, [1024, 4096, 1, 1]> blocks_22_mlp_2_weight_to_fp16 = const()[name = tensor<string, []>("blocks_22_mlp_2_weight_to_fp16"), val = tensor<fp16, [1024, 4096, 1, 1]>(BLOBFILE(path = tensor<string, []>("@model_path/weights/weight.bin"), offset = tensor<uint64, []>(580869952)))];
            tensor<fp16, [1024]> blocks_22_mlp_2_bias_to_fp16 = const()[name = tensor<string, []>("blocks_22_mlp_2_bias_to_fp16"), val = tensor<fp16, [1024]>(BLOBFILE(path = tensor<string, []>("@model_path/weights/weight.bin"), offset = tensor<uint64, []>(589258624)))];
            tensor<fp16, [1, 1024, 1, 1500]> var_5550_cast_fp16 = conv(bias = blocks_22_mlp_2_bias_to_fp16, dilations = var_5550_dilations_0, groups = var_5550_groups_0, pad = var_5550_pad_0, pad_type = var_5550_pad_type_0, strides = var_5550_strides_0, weight = blocks_22_mlp_2_weight_to_fp16, x = input_231_cast_fp16)[name = tensor<string, []>("op_5550_cast_fp16")];
            tensor<fp16, [1, 1024, 1, 1500]> inputs_93_cast_fp16 = add(x = inputs_91_cast_fp16, y = var_5550_cast_fp16)[name = tensor<string, []>("inputs_93_cast_fp16")];
            tensor<int32, []> var_5559 = const()[name = tensor<string, []>("op_5559"), val = tensor<int32, []>(1)];
            tensor<int32, [1]> input_233_axes_0 = const()[name = tensor<string, []>("input_233_axes_0"), val = tensor<int32, [1]>([1])];
            tensor<fp16, [1024]> input_233_gamma_0_to_fp16 = const()[name = tensor<string, []>("input_233_gamma_0_to_fp16"), val = tensor<fp16, [1024]>(BLOBFILE(path = tensor<string, []>("@model_path/weights/weight.bin"), offset = tensor<uint64, []>(589260736)))];
            tensor<fp16, [1024]> input_233_beta_0_to_fp16 = const()[name = tensor<string, []>("input_233_beta_0_to_fp16"), val = tensor<fp16, [1024]>(BLOBFILE(path = tensor<string, []>("@model_path/weights/weight.bin"), offset = tensor<uint64, []>(589262848)))];
            tensor<fp16, []> var_5575_to_fp16 = const()[name = tensor<string, []>("op_5575_to_fp16"), val = tensor<fp16, []>(0x1.5p-17)];
            tensor<fp16, [1, 1024, 1, 1500]> input_233_cast_fp16 = layer_norm(axes = input_233_axes_0, beta = input_233_beta_0_to_fp16, epsilon = var_5575_to_fp16, gamma = input_233_gamma_0_to_fp16, x = inputs_93_cast_fp16)[name = tensor<string, []>("input_233_cast_fp16")];
            tensor<string, []> q_pad_type_0 = const()[name = tensor<string, []>("q_pad_type_0"), val = tensor<string, []>("valid")];
            tensor<int32, [2]> q_strides_0 = const()[name = tensor<string, []>("q_strides_0"), val = tensor<int32, [2]>([1, 1])];
            tensor<int32, [4]> q_pad_0 = const()[name = tensor<string, []>("q_pad_0"), val = tensor<int32, [4]>([0, 0, 0, 0])];
            tensor<int32, [2]> q_dilations_0 = const()[name = tensor<string, []>("q_dilations_0"), val = tensor<int32, [2]>([1, 1])];
            tensor<int32, []> q_groups_0 = const()[name = tensor<string, []>("q_groups_0"), val = tensor<int32, []>(1)];
            tensor<fp16, [1024, 1024, 1, 1]> var_5610_weight_0_to_fp16 = const()[name = tensor<string, []>("op_5610_weight_0_to_fp16"), val = tensor<fp16, [1024, 1024, 1, 1]>(BLOBFILE(path = tensor<string, []>("@model_path/weights/weight.bin"), offset = tensor<uint64, []>(589264960)))];
            tensor<fp16, [1024]> var_5610_bias_0_to_fp16 = const()[name = tensor<string, []>("op_5610_bias_0_to_fp16"), val = tensor<fp16, [1024]>(BLOBFILE(path = tensor<string, []>("@model_path/weights/weight.bin"), offset = tensor<uint64, []>(591362176)))];
            tensor<fp16, [1, 1024, 1, 1500]> var_5610_cast_fp16 = conv(bias = var_5610_bias_0_to_fp16, dilations = q_dilations_0, groups = q_groups_0, pad = q_pad_0, pad_type = q_pad_type_0, strides = q_strides_0, weight = var_5610_weight_0_to_fp16, x = input_233_cast_fp16)[name = tensor<string, []>("op_5610_cast_fp16")];
            tensor<string, []> k_pad_type_0 = const()[name = tensor<string, []>("k_pad_type_0"), val = tensor<string, []>("valid")];
            tensor<int32, [2]> k_strides_0 = const()[name = tensor<string, []>("k_strides_0"), val = tensor<int32, [2]>([1, 1])];
            tensor<int32, [4]> k_pad_0 = const()[name = tensor<string, []>("k_pad_0"), val = tensor<int32, [4]>([0, 0, 0, 0])];
            tensor<int32, [2]> k_dilations_0 = const()[name = tensor<string, []>("k_dilations_0"), val = tensor<int32, [2]>([1, 1])];
            tensor<int32, []> k_groups_0 = const()[name = tensor<string, []>("k_groups_0"), val = tensor<int32, []>(1)];
            tensor<fp16, [1024, 1024, 1, 1]> blocks_23_attn_key_weight_to_fp16 = const()[name = tensor<string, []>("blocks_23_attn_key_weight_to_fp16"), val = tensor<fp16, [1024, 1024, 1, 1]>(BLOBFILE(path = tensor<string, []>("@model_path/weights/weight.bin"), offset = tensor<uint64, []>(591364288)))];
            tensor<fp16, [1, 1024, 1, 1500]> k_cast_fp16 = conv(dilations = k_dilations_0, groups = k_groups_0, pad = k_pad_0, pad_type = k_pad_type_0, strides = k_strides_0, weight = blocks_23_attn_key_weight_to_fp16, x = input_233_cast_fp16)[name = tensor<string, []>("k_cast_fp16")];
            tensor<string, []> var_5608_pad_type_0 = const()[name = tensor<string, []>("op_5608_pad_type_0"), val = tensor<string, []>("valid")];
            tensor<int32, [2]> var_5608_strides_0 = const()[name = tensor<string, []>("op_5608_strides_0"), val = tensor<int32, [2]>([1, 1])];
            tensor<int32, [4]> var_5608_pad_0 = const()[name = tensor<string, []>("op_5608_pad_0"), val = tensor<int32, [4]>([0, 0, 0, 0])];
            tensor<int32, [2]> var_5608_dilations_0 = const()[name = tensor<string, []>("op_5608_dilations_0"), val = tensor<int32, [2]>([1, 1])];
            tensor<int32, []> var_5608_groups_0 = const()[name = tensor<string, []>("op_5608_groups_0"), val = tensor<int32, []>(1)];
            tensor<fp16, [1024, 1024, 1, 1]> blocks_23_attn_value_weight_to_fp16 = const()[name = tensor<string, []>("blocks_23_attn_value_weight_to_fp16"), val = tensor<fp16, [1024, 1024, 1, 1]>(BLOBFILE(path = tensor<string, []>("@model_path/weights/weight.bin"), offset = tensor<uint64, []>(593461504)))];
            tensor<fp16, [1024]> blocks_23_attn_value_bias_to_fp16 = const()[name = tensor<string, []>("blocks_23_attn_value_bias_to_fp16"), val = tensor<fp16, [1024]>(BLOBFILE(path = tensor<string, []>("@model_path/weights/weight.bin"), offset = tensor<uint64, []>(595558720)))];
            tensor<fp16, [1, 1024, 1, 1500]> var_5608_cast_fp16 = conv(bias = blocks_23_attn_value_bias_to_fp16, dilations = var_5608_dilations_0, groups = var_5608_groups_0, pad = var_5608_pad_0, pad_type = var_5608_pad_type_0, strides = var_5608_strides_0, weight = blocks_23_attn_value_weight_to_fp16, x = input_233_cast_fp16)[name = tensor<string, []>("op_5608_cast_fp16")];
            tensor<int32, [16]> tile_69 = const()[name = tensor<string, []>("tile_69"), val = tensor<int32, [16]>([64, 64, 64, 64, 64, 64, 64, 64, 64, 64, 64, 64, 64, 64, 64, 64])];
            tensor<int32, []> var_5611_axis_0 = const()[name = tensor<string, []>("op_5611_axis_0"), val = tensor<int32, []>(1)];
            tensor<fp16, [1, 64, 1, 1500]> var_5611_cast_fp16_0, tensor<fp16, [1, 64, 1, 1500]> var_5611_cast_fp16_1, tensor<fp16, [1, 64, 1, 1500]> var_5611_cast_fp16_2, tensor<fp16, [1, 64, 1, 1500]> var_5611_cast_fp16_3, tensor<fp16, [1, 64, 1, 1500]> var_5611_cast_fp16_4, tensor<fp16, [1, 64, 1, 1500]> var_5611_cast_fp16_5, tensor<fp16, [1, 64, 1, 1500]> var_5611_cast_fp16_6, tensor<fp16, [1, 64, 1, 1500]> var_5611_cast_fp16_7, tensor<fp16, [1, 64, 1, 1500]> var_5611_cast_fp16_8, tensor<fp16, [1, 64, 1, 1500]> var_5611_cast_fp16_9, tensor<fp16, [1, 64, 1, 1500]> var_5611_cast_fp16_10, tensor<fp16, [1, 64, 1, 1500]> var_5611_cast_fp16_11, tensor<fp16, [1, 64, 1, 1500]> var_5611_cast_fp16_12, tensor<fp16, [1, 64, 1, 1500]> var_5611_cast_fp16_13, tensor<fp16, [1, 64, 1, 1500]> var_5611_cast_fp16_14, tensor<fp16, [1, 64, 1, 1500]> var_5611_cast_fp16_15 = split(axis = var_5611_axis_0, split_sizes = tile_69, x = var_5610_cast_fp16)[name = tensor<string, []>("op_5611_cast_fp16")];
            tensor<int32, [4]> var_5628_perm_0 = const()[name = tensor<string, []>("op_5628_perm_0"), val = tensor<int32, [4]>([0, 3, 2, 1])];
            tensor<int32, [16]> tile_70 = const()[name = tensor<string, []>("tile_70"), val = tensor<int32, [16]>([64, 64, 64, 64, 64, 64, 64, 64, 64, 64, 64, 64, 64, 64, 64, 64])];
            tensor<int32, []> var_5629_axis_0 = const()[name = tensor<string, []>("op_5629_axis_0"), val = tensor<int32, []>(3)];
            tensor<fp16, [1, 1500, 1, 1024]> var_5628_cast_fp16 = transpose(perm = var_5628_perm_0, x = k_cast_fp16)[name = tensor<string, []>("transpose_1")];
            tensor<fp16, [1, 1500, 1, 64]> var_5629_cast_fp16_0, tensor<fp16, [1, 1500, 1, 64]> var_5629_cast_fp16_1, tensor<fp16, [1, 1500, 1, 64]> var_5629_cast_fp16_2, tensor<fp16, [1, 1500, 1, 64]> var_5629_cast_fp16_3, tensor<fp16, [1, 1500, 1, 64]> var_5629_cast_fp16_4, tensor<fp16, [1, 1500, 1, 64]> var_5629_cast_fp16_5, tensor<fp16, [1, 1500, 1, 64]> var_5629_cast_fp16_6, tensor<fp16, [1, 1500, 1, 64]> var_5629_cast_fp16_7, tensor<fp16, [1, 1500, 1, 64]> var_5629_cast_fp16_8, tensor<fp16, [1, 1500, 1, 64]> var_5629_cast_fp16_9, tensor<fp16, [1, 1500, 1, 64]> var_5629_cast_fp16_10, tensor<fp16, [1, 1500, 1, 64]> var_5629_cast_fp16_11, tensor<fp16, [1, 1500, 1, 64]> var_5629_cast_fp16_12, tensor<fp16, [1, 1500, 1, 64]> var_5629_cast_fp16_13, tensor<fp16, [1, 1500, 1, 64]> var_5629_cast_fp16_14, tensor<fp16, [1, 1500, 1, 64]> var_5629_cast_fp16_15 = split(axis = var_5629_axis_0, split_sizes = tile_70, x = var_5628_cast_fp16)[name = tensor<string, []>("op_5629_cast_fp16")];
            tensor<int32, [16]> tile_71 = const()[name = tensor<string, []>("tile_71"), val = tensor<int32, [16]>([64, 64, 64, 64, 64, 64, 64, 64, 64, 64, 64, 64, 64, 64, 64, 64])];
            tensor<int32, []> var_5646_axis_0 = const()[name = tensor<string, []>("op_5646_axis_0"), val = tensor<int32, []>(1)];
            tensor<fp16, [1, 64, 1, 1500]> var_5646_cast_fp16_0, tensor<fp16, [1, 64, 1, 1500]> var_5646_cast_fp16_1, tensor<fp16, [1, 64, 1, 1500]> var_5646_cast_fp16_2, tensor<fp16, [1, 64, 1, 1500]> var_5646_cast_fp16_3, tensor<fp16, [1, 64, 1, 1500]> var_5646_cast_fp16_4, tensor<fp16, [1, 64, 1, 1500]> var_5646_cast_fp16_5, tensor<fp16, [1, 64, 1, 1500]> var_5646_cast_fp16_6, tensor<fp16, [1, 64, 1, 1500]> var_5646_cast_fp16_7, tensor<fp16, [1, 64, 1, 1500]> var_5646_cast_fp16_8, tensor<fp16, [1, 64, 1, 1500]> var_5646_cast_fp16_9, tensor<fp16, [1, 64, 1, 1500]> var_5646_cast_fp16_10, tensor<fp16, [1, 64, 1, 1500]> var_5646_cast_fp16_11, tensor<fp16, [1, 64, 1, 1500]> var_5646_cast_fp16_12, tensor<fp16, [1, 64, 1, 1500]> var_5646_cast_fp16_13, tensor<fp16, [1, 64, 1, 1500]> var_5646_cast_fp16_14, tensor<fp16, [1, 64, 1, 1500]> var_5646_cast_fp16_15 = split(axis = var_5646_axis_0, split_sizes = tile_71, x = var_5608_cast_fp16)[name = tensor<string, []>("op_5646_cast_fp16")];
            tensor<string, []> aw_737_equation_0 = const()[name = tensor<string, []>("aw_737_equation_0"), val = tensor<string, []>("bkhc,bchq->bkhq")];
            tensor<fp16, [1, 1500, 1, 1500]> aw_737_cast_fp16 = einsum(equation = aw_737_equation_0, values = (var_5629_cast_fp16_0, var_5611_cast_fp16_0))[name = tensor<string, []>("aw_737_cast_fp16")];
            tensor<string, []> aw_739_equation_0 = const()[name = tensor<string, []>("aw_739_equation_0"), val = tensor<string, []>("bkhc,bchq->bkhq")];
            tensor<fp16, [1, 1500, 1, 1500]> aw_739_cast_fp16 = einsum(equation = aw_739_equation_0, values = (var_5629_cast_fp16_1, var_5611_cast_fp16_1))[name = tensor<string, []>("aw_739_cast_fp16")];
            tensor<string, []> aw_741_equation_0 = const()[name = tensor<string, []>("aw_741_equation_0"), val = tensor<string, []>("bkhc,bchq->bkhq")];
            tensor<fp16, [1, 1500, 1, 1500]> aw_741_cast_fp16 = einsum(equation = aw_741_equation_0, values = (var_5629_cast_fp16_2, var_5611_cast_fp16_2))[name = tensor<string, []>("aw_741_cast_fp16")];
            tensor<string, []> aw_743_equation_0 = const()[name = tensor<string, []>("aw_743_equation_0"), val = tensor<string, []>("bkhc,bchq->bkhq")];
            tensor<fp16, [1, 1500, 1, 1500]> aw_743_cast_fp16 = einsum(equation = aw_743_equation_0, values = (var_5629_cast_fp16_3, var_5611_cast_fp16_3))[name = tensor<string, []>("aw_743_cast_fp16")];
            tensor<string, []> aw_745_equation_0 = const()[name = tensor<string, []>("aw_745_equation_0"), val = tensor<string, []>("bkhc,bchq->bkhq")];
            tensor<fp16, [1, 1500, 1, 1500]> aw_745_cast_fp16 = einsum(equation = aw_745_equation_0, values = (var_5629_cast_fp16_4, var_5611_cast_fp16_4))[name = tensor<string, []>("aw_745_cast_fp16")];
            tensor<string, []> aw_747_equation_0 = const()[name = tensor<string, []>("aw_747_equation_0"), val = tensor<string, []>("bkhc,bchq->bkhq")];
            tensor<fp16, [1, 1500, 1, 1500]> aw_747_cast_fp16 = einsum(equation = aw_747_equation_0, values = (var_5629_cast_fp16_5, var_5611_cast_fp16_5))[name = tensor<string, []>("aw_747_cast_fp16")];
            tensor<string, []> aw_749_equation_0 = const()[name = tensor<string, []>("aw_749_equation_0"), val = tensor<string, []>("bkhc,bchq->bkhq")];
            tensor<fp16, [1, 1500, 1, 1500]> aw_749_cast_fp16 = einsum(equation = aw_749_equation_0, values = (var_5629_cast_fp16_6, var_5611_cast_fp16_6))[name = tensor<string, []>("aw_749_cast_fp16")];
            tensor<string, []> aw_751_equation_0 = const()[name = tensor<string, []>("aw_751_equation_0"), val = tensor<string, []>("bkhc,bchq->bkhq")];
            tensor<fp16, [1, 1500, 1, 1500]> aw_751_cast_fp16 = einsum(equation = aw_751_equation_0, values = (var_5629_cast_fp16_7, var_5611_cast_fp16_7))[name = tensor<string, []>("aw_751_cast_fp16")];
            tensor<string, []> aw_753_equation_0 = const()[name = tensor<string, []>("aw_753_equation_0"), val = tensor<string, []>("bkhc,bchq->bkhq")];
            tensor<fp16, [1, 1500, 1, 1500]> aw_753_cast_fp16 = einsum(equation = aw_753_equation_0, values = (var_5629_cast_fp16_8, var_5611_cast_fp16_8))[name = tensor<string, []>("aw_753_cast_fp16")];
            tensor<string, []> aw_755_equation_0 = const()[name = tensor<string, []>("aw_755_equation_0"), val = tensor<string, []>("bkhc,bchq->bkhq")];
            tensor<fp16, [1, 1500, 1, 1500]> aw_755_cast_fp16 = einsum(equation = aw_755_equation_0, values = (var_5629_cast_fp16_9, var_5611_cast_fp16_9))[name = tensor<string, []>("aw_755_cast_fp16")];
            tensor<string, []> aw_757_equation_0 = const()[name = tensor<string, []>("aw_757_equation_0"), val = tensor<string, []>("bkhc,bchq->bkhq")];
            tensor<fp16, [1, 1500, 1, 1500]> aw_757_cast_fp16 = einsum(equation = aw_757_equation_0, values = (var_5629_cast_fp16_10, var_5611_cast_fp16_10))[name = tensor<string, []>("aw_757_cast_fp16")];
            tensor<string, []> aw_759_equation_0 = const()[name = tensor<string, []>("aw_759_equation_0"), val = tensor<string, []>("bkhc,bchq->bkhq")];
            tensor<fp16, [1, 1500, 1, 1500]> aw_759_cast_fp16 = einsum(equation = aw_759_equation_0, values = (var_5629_cast_fp16_11, var_5611_cast_fp16_11))[name = tensor<string, []>("aw_759_cast_fp16")];
            tensor<string, []> aw_761_equation_0 = const()[name = tensor<string, []>("aw_761_equation_0"), val = tensor<string, []>("bkhc,bchq->bkhq")];
            tensor<fp16, [1, 1500, 1, 1500]> aw_761_cast_fp16 = einsum(equation = aw_761_equation_0, values = (var_5629_cast_fp16_12, var_5611_cast_fp16_12))[name = tensor<string, []>("aw_761_cast_fp16")];
            tensor<string, []> aw_763_equation_0 = const()[name = tensor<string, []>("aw_763_equation_0"), val = tensor<string, []>("bkhc,bchq->bkhq")];
            tensor<fp16, [1, 1500, 1, 1500]> aw_763_cast_fp16 = einsum(equation = aw_763_equation_0, values = (var_5629_cast_fp16_13, var_5611_cast_fp16_13))[name = tensor<string, []>("aw_763_cast_fp16")];
            tensor<string, []> aw_765_equation_0 = const()[name = tensor<string, []>("aw_765_equation_0"), val = tensor<string, []>("bkhc,bchq->bkhq")];
            tensor<fp16, [1, 1500, 1, 1500]> aw_765_cast_fp16 = einsum(equation = aw_765_equation_0, values = (var_5629_cast_fp16_14, var_5611_cast_fp16_14))[name = tensor<string, []>("aw_765_cast_fp16")];
            tensor<string, []> aw_equation_0 = const()[name = tensor<string, []>("aw_equation_0"), val = tensor<string, []>("bkhc,bchq->bkhq")];
            tensor<fp16, [1, 1500, 1, 1500]> aw_cast_fp16 = einsum(equation = aw_equation_0, values = (var_5629_cast_fp16_15, var_5611_cast_fp16_15))[name = tensor<string, []>("aw_cast_fp16")];
            tensor<fp16, [1, 1500, 1, 1500]> var_5695_cast_fp16 = softmax(axis = var_5559, x = aw_737_cast_fp16)[name = tensor<string, []>("op_5695_cast_fp16")];
            tensor<fp16, [1, 1500, 1, 1500]> var_5696_cast_fp16 = softmax(axis = var_5559, x = aw_739_cast_fp16)[name = tensor<string, []>("op_5696_cast_fp16")];
            tensor<fp16, [1, 1500, 1, 1500]> var_5697_cast_fp16 = softmax(axis = var_5559, x = aw_741_cast_fp16)[name = tensor<string, []>("op_5697_cast_fp16")];
            tensor<fp16, [1, 1500, 1, 1500]> var_5698_cast_fp16 = softmax(axis = var_5559, x = aw_743_cast_fp16)[name = tensor<string, []>("op_5698_cast_fp16")];
            tensor<fp16, [1, 1500, 1, 1500]> var_5699_cast_fp16 = softmax(axis = var_5559, x = aw_745_cast_fp16)[name = tensor<string, []>("op_5699_cast_fp16")];
            tensor<fp16, [1, 1500, 1, 1500]> var_5700_cast_fp16 = softmax(axis = var_5559, x = aw_747_cast_fp16)[name = tensor<string, []>("op_5700_cast_fp16")];
            tensor<fp16, [1, 1500, 1, 1500]> var_5701_cast_fp16 = softmax(axis = var_5559, x = aw_749_cast_fp16)[name = tensor<string, []>("op_5701_cast_fp16")];
            tensor<fp16, [1, 1500, 1, 1500]> var_5702_cast_fp16 = softmax(axis = var_5559, x = aw_751_cast_fp16)[name = tensor<string, []>("op_5702_cast_fp16")];
            tensor<fp16, [1, 1500, 1, 1500]> var_5703_cast_fp16 = softmax(axis = var_5559, x = aw_753_cast_fp16)[name = tensor<string, []>("op_5703_cast_fp16")];
            tensor<fp16, [1, 1500, 1, 1500]> var_5704_cast_fp16 = softmax(axis = var_5559, x = aw_755_cast_fp16)[name = tensor<string, []>("op_5704_cast_fp16")];
            tensor<fp16, [1, 1500, 1, 1500]> var_5705_cast_fp16 = softmax(axis = var_5559, x = aw_757_cast_fp16)[name = tensor<string, []>("op_5705_cast_fp16")];
            tensor<fp16, [1, 1500, 1, 1500]> var_5706_cast_fp16 = softmax(axis = var_5559, x = aw_759_cast_fp16)[name = tensor<string, []>("op_5706_cast_fp16")];
            tensor<fp16, [1, 1500, 1, 1500]> var_5707_cast_fp16 = softmax(axis = var_5559, x = aw_761_cast_fp16)[name = tensor<string, []>("op_5707_cast_fp16")];
            tensor<fp16, [1, 1500, 1, 1500]> var_5708_cast_fp16 = softmax(axis = var_5559, x = aw_763_cast_fp16)[name = tensor<string, []>("op_5708_cast_fp16")];
            tensor<fp16, [1, 1500, 1, 1500]> var_5709_cast_fp16 = softmax(axis = var_5559, x = aw_765_cast_fp16)[name = tensor<string, []>("op_5709_cast_fp16")];
            tensor<fp16, [1, 1500, 1, 1500]> var_5710_cast_fp16 = softmax(axis = var_5559, x = aw_cast_fp16)[name = tensor<string, []>("op_5710_cast_fp16")];
            tensor<string, []> var_5712_equation_0 = const()[name = tensor<string, []>("op_5712_equation_0"), val = tensor<string, []>("bchk,bkhq->bchq")];
            tensor<fp16, [1, 64, 1, 1500]> var_5712_cast_fp16 = einsum(equation = var_5712_equation_0, values = (var_5646_cast_fp16_0, var_5695_cast_fp16))[name = tensor<string, []>("op_5712_cast_fp16")];
            tensor<string, []> var_5714_equation_0 = const()[name = tensor<string, []>("op_5714_equation_0"), val = tensor<string, []>("bchk,bkhq->bchq")];
            tensor<fp16, [1, 64, 1, 1500]> var_5714_cast_fp16 = einsum(equation = var_5714_equation_0, values = (var_5646_cast_fp16_1, var_5696_cast_fp16))[name = tensor<string, []>("op_5714_cast_fp16")];
            tensor<string, []> var_5716_equation_0 = const()[name = tensor<string, []>("op_5716_equation_0"), val = tensor<string, []>("bchk,bkhq->bchq")];
            tensor<fp16, [1, 64, 1, 1500]> var_5716_cast_fp16 = einsum(equation = var_5716_equation_0, values = (var_5646_cast_fp16_2, var_5697_cast_fp16))[name = tensor<string, []>("op_5716_cast_fp16")];
            tensor<string, []> var_5718_equation_0 = const()[name = tensor<string, []>("op_5718_equation_0"), val = tensor<string, []>("bchk,bkhq->bchq")];
            tensor<fp16, [1, 64, 1, 1500]> var_5718_cast_fp16 = einsum(equation = var_5718_equation_0, values = (var_5646_cast_fp16_3, var_5698_cast_fp16))[name = tensor<string, []>("op_5718_cast_fp16")];
            tensor<string, []> var_5720_equation_0 = const()[name = tensor<string, []>("op_5720_equation_0"), val = tensor<string, []>("bchk,bkhq->bchq")];
            tensor<fp16, [1, 64, 1, 1500]> var_5720_cast_fp16 = einsum(equation = var_5720_equation_0, values = (var_5646_cast_fp16_4, var_5699_cast_fp16))[name = tensor<string, []>("op_5720_cast_fp16")];
            tensor<string, []> var_5722_equation_0 = const()[name = tensor<string, []>("op_5722_equation_0"), val = tensor<string, []>("bchk,bkhq->bchq")];
            tensor<fp16, [1, 64, 1, 1500]> var_5722_cast_fp16 = einsum(equation = var_5722_equation_0, values = (var_5646_cast_fp16_5, var_5700_cast_fp16))[name = tensor<string, []>("op_5722_cast_fp16")];
            tensor<string, []> var_5724_equation_0 = const()[name = tensor<string, []>("op_5724_equation_0"), val = tensor<string, []>("bchk,bkhq->bchq")];
            tensor<fp16, [1, 64, 1, 1500]> var_5724_cast_fp16 = einsum(equation = var_5724_equation_0, values = (var_5646_cast_fp16_6, var_5701_cast_fp16))[name = tensor<string, []>("op_5724_cast_fp16")];
            tensor<string, []> var_5726_equation_0 = const()[name = tensor<string, []>("op_5726_equation_0"), val = tensor<string, []>("bchk,bkhq->bchq")];
            tensor<fp16, [1, 64, 1, 1500]> var_5726_cast_fp16 = einsum(equation = var_5726_equation_0, values = (var_5646_cast_fp16_7, var_5702_cast_fp16))[name = tensor<string, []>("op_5726_cast_fp16")];
            tensor<string, []> var_5728_equation_0 = const()[name = tensor<string, []>("op_5728_equation_0"), val = tensor<string, []>("bchk,bkhq->bchq")];
            tensor<fp16, [1, 64, 1, 1500]> var_5728_cast_fp16 = einsum(equation = var_5728_equation_0, values = (var_5646_cast_fp16_8, var_5703_cast_fp16))[name = tensor<string, []>("op_5728_cast_fp16")];
            tensor<string, []> var_5730_equation_0 = const()[name = tensor<string, []>("op_5730_equation_0"), val = tensor<string, []>("bchk,bkhq->bchq")];
            tensor<fp16, [1, 64, 1, 1500]> var_5730_cast_fp16 = einsum(equation = var_5730_equation_0, values = (var_5646_cast_fp16_9, var_5704_cast_fp16))[name = tensor<string, []>("op_5730_cast_fp16")];
            tensor<string, []> var_5732_equation_0 = const()[name = tensor<string, []>("op_5732_equation_0"), val = tensor<string, []>("bchk,bkhq->bchq")];
            tensor<fp16, [1, 64, 1, 1500]> var_5732_cast_fp16 = einsum(equation = var_5732_equation_0, values = (var_5646_cast_fp16_10, var_5705_cast_fp16))[name = tensor<string, []>("op_5732_cast_fp16")];
            tensor<string, []> var_5734_equation_0 = const()[name = tensor<string, []>("op_5734_equation_0"), val = tensor<string, []>("bchk,bkhq->bchq")];
            tensor<fp16, [1, 64, 1, 1500]> var_5734_cast_fp16 = einsum(equation = var_5734_equation_0, values = (var_5646_cast_fp16_11, var_5706_cast_fp16))[name = tensor<string, []>("op_5734_cast_fp16")];
            tensor<string, []> var_5736_equation_0 = const()[name = tensor<string, []>("op_5736_equation_0"), val = tensor<string, []>("bchk,bkhq->bchq")];
            tensor<fp16, [1, 64, 1, 1500]> var_5736_cast_fp16 = einsum(equation = var_5736_equation_0, values = (var_5646_cast_fp16_12, var_5707_cast_fp16))[name = tensor<string, []>("op_5736_cast_fp16")];
            tensor<string, []> var_5738_equation_0 = const()[name = tensor<string, []>("op_5738_equation_0"), val = tensor<string, []>("bchk,bkhq->bchq")];
            tensor<fp16, [1, 64, 1, 1500]> var_5738_cast_fp16 = einsum(equation = var_5738_equation_0, values = (var_5646_cast_fp16_13, var_5708_cast_fp16))[name = tensor<string, []>("op_5738_cast_fp16")];
            tensor<string, []> var_5740_equation_0 = const()[name = tensor<string, []>("op_5740_equation_0"), val = tensor<string, []>("bchk,bkhq->bchq")];
            tensor<fp16, [1, 64, 1, 1500]> var_5740_cast_fp16 = einsum(equation = var_5740_equation_0, values = (var_5646_cast_fp16_14, var_5709_cast_fp16))[name = tensor<string, []>("op_5740_cast_fp16")];
            tensor<string, []> var_5742_equation_0 = const()[name = tensor<string, []>("op_5742_equation_0"), val = tensor<string, []>("bchk,bkhq->bchq")];
            tensor<fp16, [1, 64, 1, 1500]> var_5742_cast_fp16 = einsum(equation = var_5742_equation_0, values = (var_5646_cast_fp16_15, var_5710_cast_fp16))[name = tensor<string, []>("op_5742_cast_fp16")];
            tensor<bool, []> input_235_interleave_0 = const()[name = tensor<string, []>("input_235_interleave_0"), val = tensor<bool, []>(false)];
            tensor<fp16, [1, 1024, 1, 1500]> input_235_cast_fp16 = concat(axis = var_5559, interleave = input_235_interleave_0, values = (var_5712_cast_fp16, var_5714_cast_fp16, var_5716_cast_fp16, var_5718_cast_fp16, var_5720_cast_fp16, var_5722_cast_fp16, var_5724_cast_fp16, var_5726_cast_fp16, var_5728_cast_fp16, var_5730_cast_fp16, var_5732_cast_fp16, var_5734_cast_fp16, var_5736_cast_fp16, var_5738_cast_fp16, var_5740_cast_fp16, var_5742_cast_fp16))[name = tensor<string, []>("input_235_cast_fp16")];
            tensor<string, []> var_5751_pad_type_0 = const()[name = tensor<string, []>("op_5751_pad_type_0"), val = tensor<string, []>("valid")];
            tensor<int32, [2]> var_5751_strides_0 = const()[name = tensor<string, []>("op_5751_strides_0"), val = tensor<int32, [2]>([1, 1])];
            tensor<int32, [4]> var_5751_pad_0 = const()[name = tensor<string, []>("op_5751_pad_0"), val = tensor<int32, [4]>([0, 0, 0, 0])];
            tensor<int32, [2]> var_5751_dilations_0 = const()[name = tensor<string, []>("op_5751_dilations_0"), val = tensor<int32, [2]>([1, 1])];
            tensor<int32, []> var_5751_groups_0 = const()[name = tensor<string, []>("op_5751_groups_0"), val = tensor<int32, []>(1)];
            tensor<fp16, [1024, 1024, 1, 1]> blocks_23_attn_out_weight_to_fp16 = const()[name = tensor<string, []>("blocks_23_attn_out_weight_to_fp16"), val = tensor<fp16, [1024, 1024, 1, 1]>(BLOBFILE(path = tensor<string, []>("@model_path/weights/weight.bin"), offset = tensor<uint64, []>(595560832)))];
            tensor<fp16, [1024]> blocks_23_attn_out_bias_to_fp16 = const()[name = tensor<string, []>("blocks_23_attn_out_bias_to_fp16"), val = tensor<fp16, [1024]>(BLOBFILE(path = tensor<string, []>("@model_path/weights/weight.bin"), offset = tensor<uint64, []>(597658048)))];
            tensor<fp16, [1, 1024, 1, 1500]> var_5751_cast_fp16 = conv(bias = blocks_23_attn_out_bias_to_fp16, dilations = var_5751_dilations_0, groups = var_5751_groups_0, pad = var_5751_pad_0, pad_type = var_5751_pad_type_0, strides = var_5751_strides_0, weight = blocks_23_attn_out_weight_to_fp16, x = input_235_cast_fp16)[name = tensor<string, []>("op_5751_cast_fp16")];
            tensor<fp16, [1, 1024, 1, 1500]> inputs_95_cast_fp16 = add(x = inputs_93_cast_fp16, y = var_5751_cast_fp16)[name = tensor<string, []>("inputs_95_cast_fp16")];
            tensor<int32, [1]> input_237_axes_0 = const()[name = tensor<string, []>("input_237_axes_0"), val = tensor<int32, [1]>([1])];
            tensor<fp16, [1024]> input_237_gamma_0_to_fp16 = const()[name = tensor<string, []>("input_237_gamma_0_to_fp16"), val = tensor<fp16, [1024]>(BLOBFILE(path = tensor<string, []>("@model_path/weights/weight.bin"), offset = tensor<uint64, []>(597660160)))];
            tensor<fp16, [1024]> input_237_beta_0_to_fp16 = const()[name = tensor<string, []>("input_237_beta_0_to_fp16"), val = tensor<fp16, [1024]>(BLOBFILE(path = tensor<string, []>("@model_path/weights/weight.bin"), offset = tensor<uint64, []>(597662272)))];
            tensor<fp16, []> var_5761_to_fp16 = const()[name = tensor<string, []>("op_5761_to_fp16"), val = tensor<fp16, []>(0x1.5p-17)];
            tensor<fp16, [1, 1024, 1, 1500]> input_237_cast_fp16 = layer_norm(axes = input_237_axes_0, beta = input_237_beta_0_to_fp16, epsilon = var_5761_to_fp16, gamma = input_237_gamma_0_to_fp16, x = inputs_95_cast_fp16)[name = tensor<string, []>("input_237_cast_fp16")];
            tensor<string, []> input_239_pad_type_0 = const()[name = tensor<string, []>("input_239_pad_type_0"), val = tensor<string, []>("valid")];
            tensor<int32, [2]> input_239_strides_0 = const()[name = tensor<string, []>("input_239_strides_0"), val = tensor<int32, [2]>([1, 1])];
            tensor<int32, [4]> input_239_pad_0 = const()[name = tensor<string, []>("input_239_pad_0"), val = tensor<int32, [4]>([0, 0, 0, 0])];
            tensor<int32, [2]> input_239_dilations_0 = const()[name = tensor<string, []>("input_239_dilations_0"), val = tensor<int32, [2]>([1, 1])];
            tensor<int32, []> input_239_groups_0 = const()[name = tensor<string, []>("input_239_groups_0"), val = tensor<int32, []>(1)];
            tensor<fp16, [4096, 1024, 1, 1]> blocks_23_mlp_0_weight_to_fp16 = const()[name = tensor<string, []>("blocks_23_mlp_0_weight_to_fp16"), val = tensor<fp16, [4096, 1024, 1, 1]>(BLOBFILE(path = tensor<string, []>("@model_path/weights/weight.bin"), offset = tensor<uint64, []>(597664384)))];
            tensor<fp16, [4096]> blocks_23_mlp_0_bias_to_fp16 = const()[name = tensor<string, []>("blocks_23_mlp_0_bias_to_fp16"), val = tensor<fp16, [4096]>(BLOBFILE(path = tensor<string, []>("@model_path/weights/weight.bin"), offset = tensor<uint64, []>(606053056)))];
            tensor<fp16, [1, 4096, 1, 1500]> input_239_cast_fp16 = conv(bias = blocks_23_mlp_0_bias_to_fp16, dilations = input_239_dilations_0, groups = input_239_groups_0, pad = input_239_pad_0, pad_type = input_239_pad_type_0, strides = input_239_strides_0, weight = blocks_23_mlp_0_weight_to_fp16, x = input_237_cast_fp16)[name = tensor<string, []>("input_239_cast_fp16")];
            tensor<string, []> input_mode_0 = const()[name = tensor<string, []>("input_mode_0"), val = tensor<string, []>("EXACT")];
            tensor<fp16, [1, 4096, 1, 1500]> input_cast_fp16 = gelu(mode = input_mode_0, x = input_239_cast_fp16)[name = tensor<string, []>("input_cast_fp16")];
            tensor<string, []> var_5787_pad_type_0 = const()[name = tensor<string, []>("op_5787_pad_type_0"), val = tensor<string, []>("valid")];
            tensor<int32, [2]> var_5787_strides_0 = const()[name = tensor<string, []>("op_5787_strides_0"), val = tensor<int32, [2]>([1, 1])];
            tensor<int32, [4]> var_5787_pad_0 = const()[name = tensor<string, []>("op_5787_pad_0"), val = tensor<int32, [4]>([0, 0, 0, 0])];
            tensor<int32, [2]> var_5787_dilations_0 = const()[name = tensor<string, []>("op_5787_dilations_0"), val = tensor<int32, [2]>([1, 1])];
            tensor<int32, []> var_5787_groups_0 = const()[name = tensor<string, []>("op_5787_groups_0"), val = tensor<int32, []>(1)];
            tensor<fp16, [1024, 4096, 1, 1]> blocks_23_mlp_2_weight_to_fp16 = const()[name = tensor<string, []>("blocks_23_mlp_2_weight_to_fp16"), val = tensor<fp16, [1024, 4096, 1, 1]>(BLOBFILE(path = tensor<string, []>("@model_path/weights/weight.bin"), offset = tensor<uint64, []>(606061312)))];
            tensor<fp16, [1024]> blocks_23_mlp_2_bias_to_fp16 = const()[name = tensor<string, []>("blocks_23_mlp_2_bias_to_fp16"), val = tensor<fp16, [1024]>(BLOBFILE(path = tensor<string, []>("@model_path/weights/weight.bin"), offset = tensor<uint64, []>(614449984)))];
            tensor<fp16, [1, 1024, 1, 1500]> var_5787_cast_fp16 = conv(bias = blocks_23_mlp_2_bias_to_fp16, dilations = var_5787_dilations_0, groups = var_5787_groups_0, pad = var_5787_pad_0, pad_type = var_5787_pad_type_0, strides = var_5787_strides_0, weight = blocks_23_mlp_2_weight_to_fp16, x = input_cast_fp16)[name = tensor<string, []>("op_5787_cast_fp16")];
            tensor<fp16, [1, 1024, 1, 1500]> inputs_cast_fp16 = add(x = inputs_95_cast_fp16, y = var_5787_cast_fp16)[name = tensor<string, []>("inputs_cast_fp16")];
            tensor<int32, [1]> x_axes_0 = const()[name = tensor<string, []>("x_axes_0"), val = tensor<int32, [1]>([1])];
            tensor<fp16, [1024]> x_gamma_0_to_fp16 = const()[name = tensor<string, []>("x_gamma_0_to_fp16"), val = tensor<fp16, [1024]>(BLOBFILE(path = tensor<string, []>("@model_path/weights/weight.bin"), offset = tensor<uint64, []>(614452096)))];
            tensor<fp16, [1024]> x_beta_0_to_fp16 = const()[name = tensor<string, []>("x_beta_0_to_fp16"), val = tensor<fp16, [1024]>(BLOBFILE(path = tensor<string, []>("@model_path/weights/weight.bin"), offset = tensor<uint64, []>(614454208)))];
            tensor<fp16, []> var_5801_to_fp16 = const()[name = tensor<string, []>("op_5801_to_fp16"), val = tensor<fp16, []>(0x1.5p-17)];
            tensor<fp16, [1, 1024, 1, 1500]> x_cast_fp16 = layer_norm(axes = x_axes_0, beta = x_beta_0_to_fp16, epsilon = var_5801_to_fp16, gamma = x_gamma_0_to_fp16, x = inputs_cast_fp16)[name = tensor<string, []>("x_cast_fp16")];
            tensor<int32, [1]> var_5812_axes_0 = const()[name = tensor<string, []>("op_5812_axes_0"), val = tensor<int32, [1]>([2])];
            tensor<fp16, [1, 1024, 1500]> var_5812_cast_fp16 = squeeze(axes = var_5812_axes_0, x = x_cast_fp16)[name = tensor<string, []>("op_5812_cast_fp16")];
            tensor<int32, [3]> var_5815_perm_0 = const()[name = tensor<string, []>("op_5815_perm_0"), val = tensor<int32, [3]>([0, 2, 1])];
            tensor<string, []> var_5815_cast_fp16_to_fp32_dtype_0 = const()[name = tensor<string, []>("op_5815_cast_fp16_to_fp32_dtype_0"), val = tensor<string, []>("fp32")];
            tensor<fp16, [1, 1500, 1024]> var_5815_cast_fp16 = transpose(perm = var_5815_perm_0, x = var_5812_cast_fp16)[name = tensor<string, []>("transpose_0")];
            tensor<fp32, [1, 1500, 1024]> output = cast(dtype = var_5815_cast_fp16_to_fp32_dtype_0, x = var_5815_cast_fp16)[name = tensor<string, []>("cast_99")];
        } -> (output);
}